ppo_runs/ppo_exp1/weights/ppo_best.pt (torch, 704878 bytes, 19 tensors)

action_log_std f4 [1, 3]
000000 fc cc 8b bb 04 09 cc bb d9 96 30 bb
       -0.0042663794 -0.0062266607 -0.002694538

conv.0.weight f4 [128, 516, 1, 1]
000000 02 ff 28 3d c7 2d e7 bc df c9 a0 3c 5e 44 5c bb
       0.04125882 -0.02822007 0.01962751 -0.0033610086
000010 8e ef 17 3d c3 05 fe 3c db 66 87 3c ea 0b d0 3c
       0.03709369 0.031008607 0.016528537 0.025396306
000020 fd e3 a1 bb 59 dd 88 bb 14 08 c7 bc b4 14 f0 3b
       -0.0049405084 -0.0041767773 -0.024295844 0.0073266868
000030 7e 0c 34 3d 33 3b 2e bd 56 6e fa bc fb 6e 6a bc
       0.043957226 -0.042536926 -0.03057019 -0.014308686
000040 66 2b ed 3c 50 37 8f 3b 09 f8 a8 bc 12 d2 14 3d
       0.028951358 0.0043706074 -0.020626085 0.03633315
000050 64 21 12 3d c2 a4 fc 3c 1d ad 01 3c f0 7a 1b bd
       0.035676375 0.030840281 0.007914809 -0.03795904
000060 37 d4 01 bc 4c a1 21 3d f9 5e 02 bd fd 06 e6 bb
       -0.007924131 0.039460465 -0.031828854 -0.007019876
000070 6f cc 04 3d e8 0e 00 3d 11 fd e9 bc c7 f5 3c 3d
       0.032421526 0.031264216 -0.028563054 0.04613283
000080 f9 88 26 3d fb e7 dc 3c d0 52 17 bd 13 e8 b2 3c
       0.04065797 0.026966086 -0.03694421 0.021839177
000090 51 2c b7 bc d2 57 e1 ba 16 77 0b 3d 74 85 19 3c
       -0.022359999 -0.001719231 0.034049116 0.009370197
0000a0 6e c1 0b bd 69 5d 8d bc 99 c9 23 3d 12 09 d2 bc
       -0.034120016 -0.017256455 0.03998718 -0.02563909
0000b0 3e d0 f1 3c 0d ef 98 ba 49 00 0b bd 03 4f a7 3c
       0.029518243 -0.0011667922 -0.03393582 0.020423418
0000c0 30 6f 87 bc 17 37 03 bd cc 75 2e bd 1a 54 1c 3d
       -0.01653251 -0.03203496 -0.04259281 0.038166143
0000d0 dd bc 2c 3d 8b 3b 0d bd 83 56 22 bc 09 b3 98 bc
       0.0421723 -0.034480613 -0.009908321 -0.018640058
0000e0 bc 33 73 bc 20 1b 87 bb 8f 5e a2 bc ec 74 aa 3c
       -0.014843877 -0.0041231066 -0.01982048 0.020807706
0000f0 c8 ab c3 bc 64 67 87 bc 31 bd b7 3c 46 51 22 3d
       -0.023885623 -0.016528793 0.02242908 0.03962829
000100 78 8a df bc b9 e4 1e bd 44 57 c9 bb 6d 10 c4 bc
       -0.027287707 -0.038792346 -0.006144436 -0.023933614
000110 69 f3 d2 bb ac 08 7f 3c ba 0f 1d 3b e1 38 31 3c
       -0.006437708 0.015566032 0.0023965673 0.010816784
000120 5f de 81 3b aa e6 2c 3d 77 f5 c8 bb 97 27 22 3c
       0.0039632763 0.042212166 -0.0061327773 0.009897134
000130 e6 4e 20 3d 91 4f a8 3b 22 f7 a0 ba 97 0f f6 3c
       0.039137743 0.005136438 -0.0012280683 0.03003673
000140 66 27 25 3d 90 de 20 bd 01 64 14 bd cc c7 e9 ba
       0.040320776 -0.039274752 -0.036228184 -0.0017836033
000150 10 0f af 3c fe 6a 3f 3c 85 54 d8 3b 22 a3 11 3c
       0.021369487 0.011683224 0.0066018724 0.008888992
000160 9c b8 fa bc a2 36 2a 3c dd 30 28 3d 21 dd 24 3c
       -0.030605607 0.010389002 0.041062225 0.010062487
000170 d6 50 26 3d 6a 41 8e 3c 70 3e 0d 3d 81 3f d9 3c
       0.040604435 0.017365176 0.034483373 0.026519539
000180 b8 b5 15 3d 79 e4 0b 3b 1e 02 3a bc 3e 27 27 bd
       0.036550254 0.0021345897 -0.011353044 -0.04080891
000190 ad 9d 02 bd 17 f7 6c 3c a9 92 04 3d 6d 96 0d bc
       -0.031888653 0.014463208 0.03236643 -0.008641821
0001a0 71 c4 d3 3c b2 f0 d6 3b c2 e2 db bb f8 80 bd 3b
       0.025850506 0.006559455 -0.0067103812 0.0057831965
0001b0 74 14 6f 3c a4 d3 83 bc 05 4b 9b 3c 7f 1f c8 bc
       0.014592279 -0.016092129 0.01895667 -0.024429081
0001c0 0f 64 2d 3c 55 db 0c bd 46 dc 91 bb d4 1c 01 bc
       0.010582938 -0.03438886 -0.0044513075 -0.007880408
0001d0 50 8b fb 3c 28 a7 2b bc 8f 3d 48 3c cc 26 f0 3c
       0.030706078 -0.010476865 0.012221708 0.029315375
0001e0 06 df e5 bb f8 ee e0 bc b4 c6 8a 3c 01 ae 40 bc
       -0.007015112 -0.0274577 0.016940452 -0.011760236
0001f0 9d a1 1a bb 38 b9 a5 bc 7b c2 9d 3c 13 6d c9 3b
       -0.0023594864 -0.02022992 0.019257775 0.006147036
000200 8c be 38 3d de d3 b3 bc 5c 71 04 3d 75 14 cc 3c
       0.045103595 -0.021951612 0.03233467 0.024912098
000210 6c 87 e8 3c 6e c0 19 bc e1 c9 ce 3c 98 3c 85 3c
       0.028384887 -0.009384258 0.025242748 0.016264245
000220 ed 53 e6 3c 3b 4f df 3c df a1 32 bd 8b 38 ac bc
       0.02811619 0.02725946 -0.043611404 -0.021023056
000230 58 bb b8 bc f1 54 cb 3b 57 c3 56 3c a1 51 19 3d
       -0.02255027 0.006205194 0.013108096 0.037431363
000240 57 8c d1 bc 0b 64 73 bc e0 49 e4 3c 30 50 96 bb
       -0.025579615 -0.014855395 0.027867258 -0.004587196
000250 f8 10 1a 3b da ce b3 3c d5 52 90 3c ab 2b 0a 3d
       0.002350865 0.02194922 0.017617622 0.03373305
000260 ba 71 85 bc e0 f5 17 bd 08 48 b6 bc 8e 43 9d bb
       -0.01628958 -0.03709972 -0.022251144 -0.004799313
000270 50 0f 33 3c 05 94 37 3d 59 c7 2f bd 84 43 1a bd
       0.010928944 0.044818897 -0.042914722 -0.037662044
000280 06 81 18 bd 57 94 04 bc 07 50 19 3d ed 24 ff 3c
       -0.03723242 -0.008092008 0.037429836 0.031145537
000290 38 34 07 bd dd b6 09 bd e9 9a 0c 3d 8c 72 9f bc
       -0.033008784 -0.033621658 0.03432742 -0.0194638
0002a0 e0 13 1e 3d 57 5d 04 3d 70 e8 0d bd de 3c a9 bc
       0.038593173 0.03231558 -0.034645498 -0.020658907
0002b0 2b df cf bb 16 47 ed 3c 1a 48 13 3d c6 93 dc 3c
       -0.0063437424 0.02896456 0.035957433 0.026925933
0002c0 a2 c6 85 3c a2 68 7a ba 85 fa 0e 3d 15 e8 e8 bc
       0.016330067 -0.00095523347 0.034906883 -0.028430978
0002d0 5b 0e 20 3d a4 06 49 bc 23 30 a0 3c e6 57 38 3d
       0.03907619 -0.01226965 0.019554203 0.0450057
0002e0 8a 61 27 3c 96 c6 dc 3c ef 7f be 3c af a5 40 3b
       0.010216126 0.026950162 0.023254363 0.002939563
0002f0 08 94 01 bd 5e d5 03 3d 90 6b 39 bb 7b b6 91 bb
       -0.031635314 0.032185905 -0.0028292872 -0.004446802
000300 b8 ec f5 bc 4b 44 d0 bc 03 0c 22 bd 25 f6 24 bd
       -0.030020103 -0.02542319 -0.039562237 -0.040273804
000310 83 49 3b 3d 35 74 c1 3c 04 3a 9c 3c c3 47 cd 3c
       0.045724403 0.023614982 0.019070633 0.025058633
000320 95 6d 12 bd 5f ab d3 bc 3b df 98 3c b1 7e 7b b8
       -0.035749037 -0.025838552 0.018661132 -5.9961054e-05
000330 51 9d 6d 3c d8 04 dc 3c 72 1f 67 3c 35 dc 39 3d
       0.014502839 0.026857778 0.014106618 0.04537602
000340 95 70 15 3d dd c4 20 bd 06 4a ed bb 25 b3 00 3c
       0.03648432 -0.039250243 -0.0072414903 0.007855211
000350 ff 6b 16 bd bd 3c 8c bb a0 57 3a bc 19 f0 0d 3d
       -0.036724087 -0.0042797015 -0.0113734305 0.034652803
000360 15 8b 35 3d 78 16 88 3c 0b 6f 11 bd 03 a5 39 3d
       0.044322092 0.016612276 -0.03550629 0.045323383
000370 28 63 27 3d 0c c4 93 bc 90 3d 19 bd 30 eb 26 bc
       0.040866047 -0.018037818 -0.037412226 -0.010187909
000380 f5 09 10 3b 64 8b d1 bc 2d 1b 1f 3d f8 52 18 bc
       0.002197859 -0.025579162 0.038844276 -0.009297125
000390 73 88 a3 bc ae 6f 7c 3c ea 23 90 3c 42 91 4a 3c
       -0.019962525 0.015407486 0.01759525 0.012363734
0003a0 d9 4e 06 3d 0d 96 34 bd 08 22 02 3d e5 d5 bf 3c
       0.03279004 -0.044088412 0.031770736 0.023417423
0003b0 15 c4 c6 bc a6 a1 11 bd 5f 1c 86 3a c0 8f a4 3a
       -0.024263421 -0.03555455 0.0010231844 0.0012555048
0003c0 da 38 67 bc 8c a5 0b 3d 45 4f 4c 3c 05 38 ff 3c
       -0.014112676 0.034093425 0.012470071 0.031154642
0003d0 ae 21 53 3a 15 c5 34 3d a1 6e a2 3c c3 af ba 3c
       0.000805403 0.044133265 0.019828143 0.022788888
0003e0 e8 f4 02 bc ae 2d 73 bc c9 94 54 bb f1 e3 6e 3c
       -0.0079929605 -0.014842434 -0.0032437316 0.014580713
0003f0 d6 78 ee 3c 11 d0 8b bc 9f 64 1c bd 94 75 10 bb
       0.029110353 -0.017066987 -0.038181897 -0.0022042738

conv.0.bias f4 [128]
000000 ad 59 38 bc d8 cd ce 3c ce 9f 1f bd 31 18 41 3c
       -0.011251849 0.025244638 -0.03897076 0.011785553
000010 75 fd 28 bd 2a b1 f6 3c d5 dc f4 bc 06 ce 5c 3c
       -0.04125734 0.030113775 -0.029890457 0.013476854
000020 b7 57 24 bd 01 12 f6 3b 04 93 87 3c 64 c6 44 3c
       -0.040122714 0.0075094705 0.016549595 0.012010191
000030 e8 3c e0 bc ce 56 45 3b da 50 2b 3d b8 d1 e8 bc
       -0.027372792 0.0030111554 0.041825153 -0.028420314
000040 b7 69 f9 3c 4c d5 37 bd 61 53 b1 3c 56 ce 5b 3c
       0.030445917 -0.04488115 0.021646203 0.013415894
000050 d3 11 2f 3d de 83 a9 bc 2b dd e9 3c 2a 87 5b bb
       0.042741608 -0.020692762 0.028547844 -0.0033497312
000060 3d 1e 9c bc e9 26 2c bc 94 22 01 bd f8 f0 de 3c
       -0.019057387 -0.010507324 -0.031527117 0.027214512
000070 be 91 c1 bb e5 bc 05 3d 1c bc eb bc 72 3d 14 bc
       -0.0059072664 0.032650847 -0.028776221 -0.009047853
000080 96 a1 56 3b 9b cd 0d 3d 1a 7a 0e 3c 76 58 32 bd
       0.0032750121 0.03461991 0.0086961035 -0.043541394
000090 14 c2 b9 bc 1d 28 30 3d 4a f8 2c bb 8b 3d ef 3c
       -0.022675551 0.043007005 -0.002639311 0.02920415
0000a0 5a 47 86 bc 73 f6 f0 3b 68 c7 20 bc 9e 6c d7 bc
       -0.016391445 0.007353598 -0.009813167 -0.02629691
0000b0 67 29 16 bb 6c de a6 bb 65 9e 1c bd 60 1d eb bc
       -0.0022912861 -0.0050924327 -0.038236994 -0.02870053
0000c0 35 18 14 3c d5 c2 a9 3c c2 41 b0 bb 62 70 2b bd
       0.0090389745 0.020722786 -0.0053789327 -0.041855223
0000d0 ba fb 7e bc 95 a3 00 3d 1a 4f 91 3c 82 51 b0 3c
       -0.015562946 0.031406004 0.017737914 0.021523241
0000e0 c8 6a 08 bd 85 7e 92 bb ba a2 ab 39 fe d8 63 3b
       -0.03330496 -0.0044706487 0.00032736902 0.0034766789
0000f0 83 0a 0b bd dc d2 19 3d 1f b9 01 bd 60 a5 1a 3d
       -0.03394557 0.037554607 -0.031670686 0.03775537
000100 72 1d f8 bc eb 3e a0 3c e0 8d 36 3c 20 33 1b 3d
       -0.030287478 0.019561252 0.011142224 0.037890553
000110 20 a3 98 3c 02 ae 9a bc 75 b1 f8 3c b1 c5 33 3d
       0.018632472 -0.018881802 0.030358056 0.043889705
000120 04 83 26 3d 5e 15 31 3d 27 0c 08 bc 7f 68 29 bd
       0.04065229 0.043233268 -0.008303679 -0.04135942
000130 7e f2 06 3d c2 09 e4 3c cf bc d1 3c dc a3 31 3c
       0.032946102 0.027836684 0.025602726 0.01084229
000140 f8 56 36 bc d6 06 8b 3b 5f 44 b9 bc af 47 c9 3c
       -0.011129133 0.0042427583 -0.02261561 0.024570314
000150 84 5e c8 bc 87 47 c6 3c 18 97 ba b7 b1 36 a5 3c
       -0.024459131 0.024204029 -2.2243286e-05 0.02016768
000160 c9 65 c2 3c 5f b6 ed 3c 87 cb 32 3d 58 21 92 3c
       0.023730176 0.029017625 0.04365113 0.017838165
000170 e8 61 ac 3c e5 71 9b bc 7e 53 8f 3c d4 04 9f bc
       0.02104278 -0.018975208 0.017495867 -0.019411482
000180 1c 79 12 3d c2 e0 c3 bc 8d 84 b7 3c 70 3c 21 3d
       0.03576003 -0.023910884 0.022402072 0.03936428
000190 2a 04 2f 3c fa e9 c1 bb 2d 92 01 bd 72 6e e9 3c
       0.010682145 -0.0059177848 -0.031633545 0.028495047
0001a0 65 86 a1 3c 1b f1 2e 3c 7b 38 19 bd 9d 41 23 bd
       0.019717405 0.010677601 -0.03740738 -0.039857496
0001b0 4b 1a 8a 3c 42 f2 2e bd 8d 01 c9 3c b1 45 f1 3c
       0.01685824 -0.042711504 0.024536872 0.029452177
0001c0 d7 af 02 bc a3 79 c8 bc 1e ec 95 3c ce 70 a0 bc
       -0.007976494 -0.024472063 0.018301066 -0.01958504
0001d0 90 ef 2b bd c1 d7 1d bd d2 49 d2 bc 4a 9f 90 3c
       -0.04197651 -0.038535837 -0.025669966 0.01765408
0001e0 f3 c1 b0 bc 77 c6 8d 3b be 0d c2 3b 77 bd a0 bc
       -0.021576857 0.0043266374 0.0059220484 -0.019621594
0001f0 37 b9 1a 3d 88 9b 10 3d c2 a0 b9 bc e7 d2 ed 3c
       0.03777429 0.035304576 -0.022659663 0.02903123

conv.2.weight f4 [64, 128, 1, 1]
000000 2e 7f cb bc 26 d1 0a bb 4f 52 64 bd b2 c8 7e bc
       -0.024840917 -0.002118179 -0.055742558 -0.015550779
000010 ee ff c1 3c 45 08 7e 39 f2 2a 0f bd cf 7d 9b 3c
       0.023681607 0.00024226408 -0.034953065 0.018980889
000020 a8 e7 c7 3b ec 8c 4a 3d 98 6a 9f 3d 1c 1b 07 3d
       0.0061006136 0.0494508 0.07784003 0.032984838
000030 37 c8 8c 3d b5 ba 99 bd 79 b7 41 3d 38 a2 a6 bd
       0.068741255 -0.07506315 0.047294114 -0.081364095
000040 0e 77 a4 3d 84 dc 82 3c 78 6a 90 bd 0f 18 49 bd
       0.080305204 0.01597429 -0.07051557 -0.04909521
000050 e6 49 30 bd cc 6f 78 bd 14 3a 89 bc 04 7e 6d 3d
       -0.043039225 -0.060653493 -0.016751327 0.057981506
000060 ee db 51 3d 36 d3 7c bd f2 b4 1b bd b8 19 da 3c
       0.051235132 -0.061724864 -0.03801436 0.026623592
000070 04 4b 3d 3d f7 24 06 bc 19 f5 01 bd 34 51 9c 3d
       0.04621412 -0.008187524 -0.031727884 0.07632676
000080 16 ff 7b bd db eb e6 3b 85 5b 95 3d 73 d2 8d 3d
       -0.061522566 0.007047159 0.072928466 0.06924906
000090 b3 4b 10 3c 2e 53 1c 3d 1e 8e 62 bd 81 c5 c5 bc
       0.008807111 0.038165264 -0.055311315 -0.024142029
0000a0 2a 81 73 bc f7 22 40 bd d3 2f 3d bd a6 56 44 3b
       -0.014862338 -0.046908345 -0.046188187 0.0029958873
0000b0 80 83 4d 3d 30 92 8d bd 46 e7 19 bd 81 55 f8 3b
       0.050174236 -0.06912649 -0.037574075 0.0075785522
0000c0 6f ea e3 b9 19 e6 ae bd d8 d4 a0 bd 10 04 53 bd
       -0.0004347148 -0.085399814 -0.07853097 -0.051517546
0000d0 49 bf a3 3d 85 2f 70 bd 92 56 fc 3a 55 d8 3d bd
       0.07995469 -0.05863907 0.0019251874 -0.04634889
0000e0 3a d5 ae 38 74 b9 2d 3c 0c 1d 00 3d 3a 23 67 bd
       8.336683e-05 0.0106032975 0.0312777 -0.05643008
0000f0 fe 05 8a bc fa 59 9d bc 97 7f a5 3d ab 02 0a 3c
       -0.01684856 -0.019207943 0.080809765 0.008423488
000100 31 5d ac 3d 68 9b ea 3c ca 66 aa bd 9d 5c 70 bc
       0.08416212 0.028638557 -0.08320387 -0.014670518
000110 57 a4 9d 3d 83 f4 9b bd 7b 5b 1d bd 11 4a 05 bd
       0.07697361 -0.07614996 -0.03841732 -0.03254134
000120 aa 45 56 bd b5 1f 18 bc 24 a7 11 3d 5a 24 8c bd
       -0.05231253 -0.009284903 0.03555979 -0.06842871
000130 70 09 a6 3d c7 6f fc 3c 30 e9 a9 3d cf 5d 47 bd
       0.08107269 0.030815018 0.0829643 -0.048673447
000140 87 51 58 3d 40 6b fe 3a c2 84 a2 3d 76 d3 00 38
       0.052812126 0.0019410625 0.07935478 3.0714516e-05
000150 d9 ee 0e bc 10 c3 82 bb 83 a3 9c bd 31 88 8c bc
       -0.008723938 -0.0039905384 -0.07648375 -0.017154785
000160 ec 48 70 3d a5 13 61 bd 7e bd 5b 3d b1 0a 03 bd
       0.058663294 -0.054950375 0.05364751 -0.031992618
000170 72 f5 c9 bb 00 3e 3a bd 59 d4 83 bd ec e0 a5 bd
       -0.0061632926 -0.045469284 -0.064369865 -0.08099541
000180 04 b5 90 3c 32 e5 34 bd 2f 77 6d bd 9d 11 3e bd
       0.01766444 -0.04416389 -0.05797499 -0.046403516
000190 9a 68 cb 3c 79 04 61 3c 76 7b 3f 3d f5 6e a4 3d
       0.024830151 0.0137339765 0.0467486 0.08028976
0001a0 3d 90 f6 3c d6 94 a9 3d f1 b3 4c ba c6 92 2f 3d
       0.030098075 0.08280341 -0.0007808796 0.042864583
0001b0 9d f3 f9 3c 0f ec a0 bd 59 02 4a 3c 67 72 9d bc
       0.030511672 -0.078575246 0.012329661 -0.01921959
0001c0 23 dc 74 3d 54 35 be 3c 01 b5 1c bd f9 3f ac bc
       0.05978025 0.023218788 -0.038258556 -0.021026598
0001d0 40 42 91 3d 40 9c 82 ba 05 30 87 3d 51 b9 a9 bb
       0.07092714 -0.0009964779 0.06600956 -0.005179562
0001e0 84 80 24 3d 73 3e 0b bd 10 52 ae bd 83 af 25 bb
       0.040161625 -0.033995103 -0.08511746 -0.0025281615
0001f0 53 ca 20 bd 5e fa b6 3d be a1 41 bd e3 4c b7 3d
       -0.03925545 0.089344725 -0.04727339 0.08950212
000200 31 94 aa bd da 63 27 3d f4 c9 a8 bd 5f eb 84 3d
       -0.083290465 0.04086671 -0.082416445 0.06490206
000210 d6 c8 94 bd 5c 63 8f bd 17 10 7c 3c 4f 10 81 3d
       -0.07264869 -0.07001373 0.0153846955 0.06301939
000220 01 91 13 3b 82 02 26 bd 3a 29 2e bd 90 f0 8a 3d
       0.002251685 -0.040529735 -0.042519785 0.06784165
000230 d1 89 db bc 79 87 a8 bd 88 e5 14 3d 1c 3d a1 3d
       -0.026799114 -0.08228964 0.03635171 0.07872984
000240 ec 4d a3 3a 18 db 93 bd 4a d2 ae bb 0c c2 a6 bd
       0.0012459136 -0.07219523 -0.005335127 -0.0814248
000250 a9 65 94 bd 9d 59 9b bd 1b 81 32 bd 74 22 8e 3c
       -0.07245953 -0.07585452 -0.043580156 0.017350413
000260 f5 66 a6 3d 29 d0 45 37 52 13 a9 3d 0c 00 5a bd
       0.08125106 1.1790581e-05 0.08255638 -0.0532227
000270 7b 54 2c 3c 11 3f ca bb 22 59 a1 bd 55 b1 a8 bc
       0.010518189 -0.006172069 -0.07878329 -0.020592371
000280 00 79 a5 ba 50 3e 83 3d 2b 1b ee 3b 76 90 d4 3a
       -0.0012624562 0.064083695 0.0072664223 0.0016217369
000290 d0 ce 3e 3d ca da 96 3c 26 63 b1 bc 1a 6d 0b bd
       0.04658395 0.018414874 -0.021653723 -0.034039594
0002a0 da 80 ac 3d cb d2 51 bc b8 08 39 bd a3 24 4a bd
       0.08423014 -0.012806605 -0.04517433 -0.049351346
0002b0 3b 42 ef bc c2 26 9a 3d 0d 56 0a bd ad d0 85 bd
       -0.029206386 0.07526924 -0.03377347 -0.06533942
0002c0 d4 24 80 3d 64 9b ae 3d 95 45 99 3d 2a 21 87 bc
       0.062570244 0.08525732 0.07483975 -0.016495306
0002d0 9b 5b d4 3c 1c f5 b1 3d 8e b3 a1 bd f7 75 9c 3d
       0.025922587 0.08689329 -0.078955755 0.076396875
0002e0 86 55 92 bc 91 fa 01 3d 42 8e d7 ba 1f d3 77 bd
       -0.017863046 0.0317331 -0.0016445594 -0.060504075
0002f0 d6 4f 05 3d c0 39 61 3d 4c 9a ab 3d 85 db 96 bd
       0.03254684 0.054986715 0.08379039 -0.07366089
000300 e4 28 c4 3c c5 4e b3 3d 10 5e 29 bd 79 40 98 bd
       0.02394528 0.087552585 -0.04134947 -0.07434172
000310 bf aa 13 bd 62 9e ae 3d c9 3e d1 bb 0d 2a 9c 3c
       -0.036051508 0.08526303 -0.0063856584 0.01906302
000320 dd d5 85 3c 98 53 7a bd 04 48 a5 bd 33 46 53 bd
       0.01633733 -0.061114877 -0.080703765 -0.05158062
000330 d6 31 a2 bd 97 b4 35 3d 49 44 a1 bd 10 65 bb bc
       -0.07919662 0.044361677 -0.078743525 -0.022875339
000340 ff ac 89 bd 73 84 4a bc f4 02 fe 39 6f cc 76 bc
       -0.067224495 -0.01236068 0.00048448856 -0.015063389
000350 76 39 c8 3a 4a b2 7f bb 64 cb a2 bc 64 e1 5d bd
       0.0015275914 -0.003901618 -0.019872375 -0.054170027
000360 43 73 32 3d ea f1 10 3d 41 01 90 3d 38 c6 85 bd
       0.043566953 0.035386957 0.07031489 -0.06531948
000370 5e 41 98 3d e1 3b ba bc 7e 89 06 bd 14 20 e9 bb
       0.07434343 -0.02273363 -0.032845967 -0.0071144197
000380 b9 e4 64 3d c0 e9 40 ba b2 ed b1 bc d2 38 97 bd
       0.05588219 -0.000735905 -0.021719787 -0.073838845
000390 48 07 00 3c 1e db b0 bd 99 85 48 bd 86 9f 9c bd
       0.007814236 -0.08635543 -0.048955534 -0.07647614
0003a0 16 89 3a 3c f7 c0 6d bd e1 cd 89 3d 0d c9 37 bd
       0.011385223 -0.058045354 0.067287214 -0.04486947
0003b0 32 e7 85 bd 4f af 4c bc ff 25 46 bd fa de e0 3c
       -0.06538238 -0.012492969 -0.04837608 0.027450074
0003c0 e2 5b 7e bd 50 57 05 bd bf 83 a8 bc 80 b9 dc 3c
       -0.062099345 -0.03255397 -0.020570634 0.026943922
0003d0 54 2a 0d 3d a5 62 30 bc be 49 75 3d 26 1e 84 3d
       0.034464195 -0.010765706 0.05988478 0.06451063
0003e0 58 37 6b 3d 7b 53 97 bd 59 b9 48 bd 76 c2 ad bd
       0.057425827 -0.073889695 -0.049004886 -0.08484356
0003f0 ad 40 f0 bb b3 5d e2 3c cb 5c 2f b5 50 fd 93 3d
       -0.0073319287 0.02763257 -6.532761e-07 0.0722605

conv.2.bias f4 [64]
000000 15 e5 9b bc 7e ff 5a 3b ca 9c af bd c7 b5 ac bd
       -0.019030133 0.0033416445 -0.08574827 -0.08433109
000010 c9 97 7d bd a0 8b 56 3d fd 92 7b bc 97 88 10 3d
       -0.06191233 0.05237925 -0.015354869 0.035286512
000020 4c 81 98 3d a1 e1 49 3d 31 4d 51 bd b7 11 77 3d
       0.074465364 0.049287442 -0.051099006 0.06031963
000030 08 f4 99 3d be 81 a7 3d 47 12 49 bd 6d 76 bf bc
       0.075172484 0.08179043 -0.049089696 -0.0233719
000040 51 8f 6a 3d 5d 81 ea 39 d4 cf 2f 3c 78 f0 53 3d
       0.057265583 0.0004472834 0.010730702 0.051743
000050 11 18 93 bc f2 50 5c 3d c7 bd a1 bc de 46 04 3d
       -0.017955812 0.053788133 -0.019743813 0.032294147
000060 2e 48 37 bd 25 90 88 bd d4 4b f9 bc 8b d8 8b bd
       -0.04474657 -0.066681184 -0.030431665 -0.06828412
000070 69 e1 1f bd 4b df 22 bd c2 26 a2 3c 04 64 83 bc
       -0.039033327 -0.03976373 0.019793872 -0.016038902
000080 af bd c4 3b de 03 91 3c 69 10 12 3c 28 a8 37 3d
       0.0060040574 0.01770204 0.008915045 0.0448381
000090 b4 14 6a 3d 4b 64 9c 3d 54 5b 73 3d 78 09 94 3d
       0.05714865 0.07636317 0.05941327 0.072283685
0000a0 26 10 aa bd 4b 2c a0 3d e6 ee 89 bc 1b 7e 48 bd
       -0.08303861 0.07820948 -0.016837548 -0.04894839
0000b0 a2 35 83 bd 44 6d 86 bd fd 77 a8 3d 1f 6e 84 3d
       -0.06406714 -0.065638095 0.08226011 0.064663164
0000c0 ad ab ac 3c 73 54 2d 3c 4b 22 ae 3d 42 ee 5e bc
       0.021077955 0.010579216 0.085026346 -0.01360661
0000d0 a9 ca 84 3d 62 cf 56 bd 63 06 47 3d 88 84 41 bd
       0.06483967 -0.05244387 0.048590075 -0.047245532
0000e0 28 28 a7 3d a3 26 3a 3a 88 2b 48 b9 4e 53 81 3d
       0.08161956 0.0007101094 -0.00019089703 0.06314717
0000f0 29 01 bb bc 72 d3 9e 3d b8 b7 f9 bc ee 31 80 bc
       -0.022827702 0.07755174 -0.030483112 -0.015648808

mlp.0.weight f4 [128, 64]
000000 be cd f6 3c c0 0a 23 bd f4 ba 15 bb d4 ee 9d bd
       0.030127402 -0.039805174 -0.0022847028 -0.077115685
000010 ae 61 9c bd 0e f5 be bd 9f 80 a7 3d 95 14 fb bd
       -0.076358184 -0.09324084 0.081788294 -0.12259785
000020 d8 5b 22 bd 70 fa a6 bc c7 96 dd 3d 8c 5a b0 bd
       -0.03963837 -0.02038309 0.10819774 -0.086110204
000030 87 cf 8c 3d d4 0a f2 bd 38 75 a4 bd ee 1c 98 3d
       0.0687552 -0.118184716 -0.0803017 0.07427393
000040 2d 73 27 3d 86 78 ee 3d d1 5d d8 bb 75 47 4c 3d
       0.040881325 0.11644082 -0.0066029807 0.049872834
000050 f8 2f ea bc 80 9d dc bc 79 63 d4 bc 80 58 b2 ba
       -0.028587326 -0.02693057 -0.025926339 -0.0013606697
000060 2a 4d e8 bd ea 94 f6 3c 26 c2 9e 3d 85 3f f3 3d
       -0.11342843 0.030100305 0.077518746 0.1187735
000070 30 5d de bd fb 53 db 3d 41 c1 df 3d 20 ef e9 bc
       -0.10857618 0.107093774 0.10925532 -0.028556406
000080 33 8e d5 3d 10 1f aa 3d 2b 40 cd 3b a9 3c 22 3c
       0.10427513 0.08306706 0.006263753 0.009902158
000090 9a 75 69 bd f0 0c f9 bd e4 ed 83 bd 50 8b f5 3c
       -0.05699692 -0.12160671 -0.064418584 0.029973656
0000a0 1b 6f 7e bd 32 36 eb 3d a4 63 16 3c 81 56 2e bd
       -0.062117677 0.11484946 0.00917903 -0.042562965
0000b0 84 fb b3 bd 28 74 be bd a3 13 c2 bd 8a 1d 13 bc
       -0.08788207 -0.09299499 -0.09476402 -0.008979211
0000c0 70 bb ea 3c 10 27 a2 3c 24 0f 8d bd 21 51 fb bd
       0.02865383 0.019794017 -0.068876535 -0.122713335
0000d0 2c c1 b4 3d 9d a3 40 bd 22 21 82 bb 64 e5 46 bd
       0.08825907 -0.047031034 -0.003971235 -0.048558608
0000e0 dc 49 ea 3d c1 54 ef bc 93 2b 3d 3d 3f bf 53 3d
       0.11439869 -0.029215218 0.046184134 0.05169606
0000f0 65 3f a0 bc 38 fd 76 bc 59 bb 48 bd a0 dd 24 3d
       -0.019561479 -0.0150750205 -0.049006794 0.04025042
000100 70 b3 04 3d c2 3e c9 bd 83 43 c5 3d 07 51 89 3d
       0.032397687 -0.09826423 0.096320175 0.06704908
000110 64 5f 40 bd dc 94 ce bd 92 f1 8b 3d f2 f7 9a bd
       -0.04696597 -0.100869864 0.06833185 -0.07566823
000120 82 05 88 3d 44 8b c7 bd f3 1b a0 bd 00 1b eb bd
       0.066416755 -0.0974336 -0.07817831 -0.11479759
000130 f2 3d ed bd 1c 40 c1 3d 25 80 b8 3a ae 7a b8 3d
       -0.11584081 0.09436056 0.0014076276 0.09007774
000140 69 09 8a 3d 84 16 71 bd 76 67 c1 3d 11 d3 fb 3c
       0.06740076 -0.058859363 0.09443562 0.030740293
000150 a4 03 b0 3d 74 37 7a 3d e5 7c fa 3d e8 2f b8 bd
       0.085944444 0.06108804 0.12230853 -0.089935124
000160 6e 40 e7 bd 4f 2f be bd 0c 06 ca bb 70 d7 b5 3d
       -0.11291586 -0.09286367 -0.0061652716 0.08878982
000170 c1 bc 95 bd 7d 3a cf bc 04 80 ba bd 42 bd be 3d
       -0.073113926 -0.025296444 -0.09106448 0.09313442
000180 65 71 a7 3d aa af 23 3d 90 68 9d bd 8a 46 ef bd
       0.08175925 0.03996245 -0.07685959 -0.11683376
000190 8b a1 f0 bd 00 b9 fb bc 42 af 63 bd 69 fc fa bd
       -0.11749562 -0.030727863 -0.05558706 -0.12255175
0001a0 cd 3e f4 3d bc e3 06 3d 0c e8 84 3c b8 71 0a 3d
       0.11926041 0.03293203 0.01622393 0.033799857
0001b0 d2 6d dd bd 55 67 ad bd 9e bb ff 3d da b5 4f bd
       -0.10811962 -0.08466975 0.12486957 -0.050710537
0001c0 c0 76 bb bc 3e a0 e3 bd 37 fa ff 3c 96 80 80 bd
       -0.022883773 -0.11114548 0.031247241 -0.06274526
0001d0 d8 c2 46 3d f8 57 d6 3d 14 0d 79 bd 9c 85 a3 3d
       0.04852566 0.104659975 -0.060803488 0.07984468
0001e0 bc 0b b1 bd b3 71 ac 3d 55 cc 55 bb 05 07 8e bd
       -0.08644816 0.08420124 -0.0032623012 -0.069349326
0001f0 0a 2a d3 3d e0 ff 82 bd e0 f5 16 3c 80 c3 36 3b
       0.10310753 -0.063964605 0.009213895 0.0027887523
000200 e4 cc 48 bd e0 bd 91 bd 58 1f 69 bd ec 95 24 3d
       -0.049023524 -0.07116294 -0.056914657 0.04018204
000210 64 95 ab 3d 9a 30 a1 bd 50 d4 da bc 78 0d 70 bd
       0.083781034 -0.07870598 -0.026712567 -0.058606595
000220 fe de ec 3d a6 29 80 bd 5c 43 1a bd c0 15 07 bc
       0.1156597 -0.06257944 -0.037661895 -0.008244932
000230 00 8e dd b9 10 55 70 bd 5e fe ea bd 80 21 c5 bc
       -0.00042258203 -0.058674872 -0.11474298 -0.024063826
000240 4e 49 d7 bd 04 fd 63 3d b4 25 6b 3d c0 ec d5 3c
       -0.10512029 0.055661216 0.057409003 0.026113868
000250 60 f0 53 3c 16 0b 8a 3d b8 80 ea 3c 34 86 ad 3d
       0.012935728 0.06740396 0.028625831 0.08472863
000260 7a 7d 97 3d 30 01 cd bc a6 0e 8a 3d 14 c3 52 3d
       0.0739698 -0.02502498 0.06741075 0.051455572
000270 50 ea 42 bc fc f5 b3 3d 24 c9 a9 3d 38 39 33 3d
       -0.011896685 0.08787152 0.08290318 0.04375574
000280 e0 67 fa bd 90 eb c8 bd 00 09 fc bb fe 00 de 3d
       -0.12226844 -0.09810555 -0.0076915026 0.10840033
000290 ac 42 33 bd 9c ef 8e bd b8 e1 d6 bc f0 27 3f bd
       -0.043764755 -0.069792956 -0.026230678 -0.046668947
0002a0 54 7a 65 bd 30 01 8a bd da dc 85 bd d4 50 f9 bd
       -0.056024864 -0.06738508 -0.06536265 -0.1217362
0002b0 e4 b9 cf 3d 90 fc 24 bd 9c aa 4e 3d 00 06 e7 3d
       0.10142878 -0.040279925 0.050455675 0.11280441
0002c0 00 b9 ee bc 50 53 2f bd d4 5d 0f bd 50 e3 62 bc
       -0.02914095 -0.042804062 -0.03500159 -0.013848141
0002d0 24 4a 65 3d 80 b2 95 3c 9a e0 b7 3d 68 37 04 bd
       0.05597891 0.018273592 0.08978386 -0.032279402
0002e0 0e 29 aa bd dc 27 b1 3d d4 73 d5 bd 7c d2 cb bd
       -0.08308612 0.08650181 -0.10422483 -0.09952256
0002f0 5a d8 f2 3d 1e a0 a1 bd 8a b7 bf bd 56 6c d1 bd
       0.11857672 -0.07891868 -0.09361179 -0.102257416
000300 cc 3d b0 bd a0 a7 a2 bb ca a2 3c bd 92 5b b1 bd
       -0.08605537 -0.00496383 -0.046053685 -0.08660044
000310 13 e1 31 bd 50 d9 a7 bd 61 6d ea bd 90 4a 93 3d
       -0.043427538 -0.08195746 -0.114466436 0.07191956
000320 98 bc 05 bd c0 28 2f 3d e4 80 bb bd d0 fe 58 3d
       -0.03265056 0.04276347 -0.09155443 0.052977383
000330 3c de 69 bd c0 61 7c 3d e3 21 7c 3d da 91 a1 3d
       -0.057096705 0.06161666 0.061555754 0.07889147
000340 0e 7c a4 bd da 3d 91 bd b0 1d a0 bd 94 da f5 3c
       -0.08031474 -0.070918754 -0.078181624 0.030011453
000350 a0 23 a1 3b 30 10 6e bd f6 60 56 3d ec 4f 1a bd
       0.004917577 -0.058120906 0.052338563 -0.037673876
000360 0e a8 9b 3d 14 a4 e7 bb ab c1 92 bd 0a 8a 99 3d
       0.07600413 -0.00706912 -0.071658455 0.07497032
000370 3b ad 38 3d e3 50 e0 3d d8 0e bf bc 76 ca 8a 3d
       0.04508708 0.10952928 -0.023322508 0.067768976
000380 55 4b ec 3d 5f cf 62 3d be 11 8b 3c 68 65 9c bd
       0.11537806 0.055373546 0.016976234 -0.07636529
000390 45 26 20 bd 22 2f 80 3d bf 94 c8 3d 45 24 3d 3c
       -0.039098997 0.0625899 0.09793996 0.011544292
0003a0 99 10 ee bc 8f 4d bd 3d 16 b2 07 3d c6 00 fe bd
       -0.029060649 0.09243309 0.03312882 -0.12402491
0003b0 ae e2 97 bc 45 3f 6d 3d 02 8b e3 bd db 6f fe bd
       -0.018540706 0.057921667 -0.11110498 -0.124236785
0003c0 6c dc 70 3d 9f 01 e7 3d a7 2e 8c 3d 48 10 67 3d
       0.05880396 0.11279606 0.06844836 0.05641201
0003d0 f2 ed c8 bd 1a e0 9f bd 95 40 5b 3c b8 26 8d bc
       -0.098110095 -0.07806416 0.013382097 -0.017230377
0003e0 93 e6 34 3d bd b4 6f 3d 89 7f fd bd 91 50 dc bd
       0.044165205 0.058521975 -0.12377841 -0.10757554
0003f0 4f e2 73 bd 07 27 7b 3d 49 c5 a3 3d 60 e5 2f 3d
       -0.059541997 0.061316516 0.079966135 0.04294336

mlp.0.bias f4 [128]
000000 a2 96 46 3d af 6b 09 3d 66 33 ac bd c7 3f 85 3d
       0.0484835 0.03354996 -0.08408241 0.06506305
000010 aa 3b e9 bd 3c 34 05 bd 73 51 89 bd 90 2f 8a bd
       -0.11388333 -0.032520518 -0.06704988 -0.06747353
000020 32 e7 41 3d cf 77 00 3d 71 bb ad b9 e4 4f 36 3d
       0.047339626 0.03136426 -0.00033136786 0.044509783
000030 b6 b0 52 bd fa 62 08 bd 0a 79 90 3a ca ba 0d bd
       -0.051438056 -0.033297516 0.00110224 -0.034601964
000040 b9 c7 50 3a 84 08 69 bd 08 7c b1 bd 77 e9 95 b9
       0.00079643313 -0.056892887 -0.08666235 -0.0002859344
000050 df d3 f5 bd 37 b1 39 bd 02 0a 69 3d 64 c6 5c bd
       -0.12003302 -0.04533502 0.05689431 -0.053900138
000060 07 6b 81 bd 62 19 fc 3d 60 a1 10 3d 78 24 78 bd
       -0.06319242 0.12309529 0.03531015 -0.060581654
000070 db 5e bd bd 8e e9 49 bc c0 b6 aa bd 3b 09 ad bd
       -0.09246608 -0.01232375 -0.08335638 -0.08449026
000080 d0 2d 11 3d 54 40 85 bd 24 2f 69 3d d8 fd ac 3d
       0.03544408 -0.0650641 0.056929722 0.08446854
000090 43 85 ba bd 40 8b 90 3b 7e bb aa 3d 21 fd 83 bc
       -0.09107449 0.004411131 0.083365425 -0.016111912
0000a0 1e 7d 92 3d f6 2c cb 3d 76 af f7 3d 99 0a 94 3d
       0.071527705 0.09920685 0.120940134 0.07228584
0000b0 7a 94 be 3d 75 be cc 3c 00 87 f6 3a 7c 25 0c 3d
       0.093056634 0.02499316 0.0018808544 0.034215435
0000c0 c3 e8 96 3b 5f 9a a9 3d b2 02 96 3d 5e 74 b7 bd
       0.004605384 0.08281397 0.07324733 -0.08957742
0000d0 4a 80 6a bd 36 64 46 3d fe 2e 95 3d a3 a5 04 3d
       -0.057251252 0.048435412 0.07284354 0.032384526
0000e0 ed 7e 50 3d 05 78 f3 bd 7c bc c5 bd b1 ad c6 bd
       0.050902296 -0.11888126 -0.09655091 -0.09701098
0000f0 12 a6 da bd 8f 92 50 bd a6 1a 03 3d e6 df cf bd
       -0.10676207 -0.05092102 0.032007836 -0.10150127
000100 a1 10 af 3d 85 92 88 bc 5a 46 59 bd 58 4d 49 3d
       0.085480936 -0.016671428 -0.053045608 0.049146026
000110 0b c1 a2 bd de 34 39 bc 38 06 db 3d 9d a9 87 bd
       -0.07946976 -0.011304108 0.106945455 -0.06624148
000120 dc 45 1d 3d 9a 3a 76 bd b2 c2 c5 3d c4 3e 05 3d
       0.0383967 -0.06011448 0.09656276 0.03253056
000130 22 14 b7 3d ef f4 1c bc 35 d6 dc 3d eb ce 82 bc
       0.08939387 -0.009579881 0.10783044 -0.015967807
000140 18 79 e5 3d 4a 5d 8d bc 69 62 bd 3d a4 57 a6 bd
       0.112047374 -0.017256398 0.09247286 -0.08122185
000150 fb 13 5d 3d ad d7 d1 3d d6 6a 81 bd 0c 8e 5b bd
       0.053974133 0.10246215 -0.063192055 -0.053602263
000160 3d b9 d7 bd 3f a4 bc 3d 0f 0b af bd b2 c2 ae bd
       -0.10533378 0.09211015 -0.08547031 -0.08533229
000170 e7 f3 d1 3d e7 d6 ee bd a0 7d 5a bd 3b 2c 85 bd
       0.10251599 -0.11662083 -0.05334246 -0.06502577
000180 3f 3b a3 3c 9b b0 9b bd c5 8f 0e 3d ac 5b 9d 3d
       0.019925712 -0.07602044 0.034805078 0.07683501
000190 20 38 8b 3d ff c3 85 bd 2a 99 b9 3d 44 2a d9 3d
       0.06797814 -0.06531524 0.09062417 0.10603765
0001a0 0c e2 be bb 05 6b da bc b3 4f db 3d d9 bc 57 bd
       -0.0058252867 -0.026662359 0.10708561 -0.052670334
0001b0 83 73 e8 bd c6 d1 a0 bd 6a 90 b5 bc 15 fd 99 bd
       -0.11350157 -0.07852511 -0.022163589 -0.07518975
0001c0 4e 40 9f 3d e2 c1 da 3d da 6e 3a 3d 34 5b 01 bd
       0.07775937 0.106815115 0.045515873 -0.03158112
0001d0 00 14 f6 ba 59 22 be 3c a5 65 6f 3b 94 a7 1c 3d
       -0.0018774271 0.023209738 0.003652909 0.038245752
0001e0 23 71 01 3d f8 b7 dd bd 6d 7b e2 3d 37 c1 d5 bc
       0.031602036 -0.10826105 0.11058698 -0.026093109
0001f0 c4 71 f2 3d 43 4c be 3d ef 15 fd bd f0 b6 a8 bc
       0.11838105 0.092918895 -0.12357699 -0.020595044

action_mean.weight f4 [3, 128]
000000 8a 8f a0 3d ed ed 06 3d 8e 68 f6 bc 75 a4 c4 bc
       0.07839878 0.032941747 -0.030079152 -0.0240042
000010 f6 16 25 3d a9 5a 17 bd 84 91 74 bd 78 33 42 3d
       0.0403051 -0.036951695 -0.059709087 0.047412366
000020 0b 36 98 bd 7b 53 e6 bb 70 3a c3 bc ad 90 3d 3d
       -0.07432183 -0.0070289946 -0.023831576 0.04628055
000030 e7 21 8d bd 11 d8 89 bc 60 9e 50 bd 3f 6b aa 3c
       -0.06891232 -0.016826661 -0.05093229 0.020803092
000040 70 12 44 3d cb 56 be 3b d2 4d 84 3d a2 3d 0f bb
       0.047869146 0.0058086864 0.064601555 -0.0021856804
000050 57 c0 c7 bb fd 23 6d 3d 6a eb 2c 3d d4 9d 20 3d
       -0.0060959267 0.05789565 0.042216696 0.039213017
000060 2e ad 04 bd e1 9a 87 3d 51 ea 97 3d 00 4d ed bc
       -0.03239172 0.06621338 0.07417739 -0.02896738
000070 d5 0b 45 3d 6e b3 5b bc 84 e3 6c bd 2d cd 41 3d
       0.048106987 -0.013409479 -0.057834163 0.04731481
000080 e1 72 08 3d c2 a5 07 bd 8b bd c5 3c 72 bd 6c 3d
       0.033312682 -0.033117063 0.024138233 0.057797857
000090 d3 7b 88 3d de 5b af bd 24 dc 4a 3d 40 8c b2 3b
       0.066642426 -0.08562444 0.04952635 0.005448848
0000a0 38 ce 8e 3d 9c 2d 75 bd 42 58 f7 ba 24 53 3d bd
       0.06972927 -0.05985795 -0.0018870907 -0.046221867
0000b0 2f 4f 31 3d e5 ea 60 3c b0 67 80 3d 1c 49 a8 3d
       0.043288406 0.013727878 0.06269777 0.082170695
0000c0 e3 30 be bb cf 79 b0 3d 03 71 98 bd a4 87 1a 3d
       -0.0058041676 0.08616983 -0.0744343 0.037727013
0000d0 4a f7 cc 3c 47 87 23 bd 30 ae 8d bd 75 d2 39 bd
       0.02502026 -0.039923932 -0.06917989 -0.045366723
0000e0 6b 76 47 bc 10 47 7e bd f8 71 d7 bc eb 95 48 bd
       -0.012174229 -0.06207949 -0.026299462 -0.048971098
0000f0 b0 1f 7a 3d d6 16 04 3d 9a 74 ac 3d b2 41 1e 3d
       0.061065376 0.03224834 0.084206775 0.03863687
000100 1e ab a5 bc 06 2d 2d 3d cf 41 44 3d 67 a6 9b bd
       -0.020223197 0.042279266 0.047914322 -0.07600098
000110 eb 6b 16 3c a6 45 8c bd fa f3 72 3d fe 51 8f bd
       0.009181003 -0.06849222 0.059314705 -0.06998061
000120 42 34 2d 3d 15 5c 4a bd 16 cb 19 3c fb a7 0f 3d
       0.042286165 -0.049404223 0.009386798 0.035072308
000130 6a d8 ad 3d 98 f5 95 3d 72 55 2e bd f9 0a 8e 3c
       0.08488543 0.07322234 -0.042561956 0.017339217
000140 18 a8 96 3d bf 7a 79 3c d7 91 40 bd bd 83 8a bd
       0.0735628 0.015227019 -0.047014084 -0.06763408
000150 ae 71 31 bd 7f 84 3c bd c9 0e 49 3d e0 7e f1 39
       -0.043321304 -0.046024796 0.049086366 0.0004606163
000160 57 29 f1 bc 65 78 9e 3d 87 20 ab bd 8c 10 05 bd
       -0.029438658 0.07737807 -0.083558135 -0.032486483
000170 e8 a6 5e bc ec 11 91 bd 8d 5f a0 3d be 51 84 bd
       -0.013589598 -0.070834965 0.07830725 -0.064609036
000180 e3 4d b0 bd 41 68 94 bd 9f 22 6e bc bd 60 bd 3c
       -0.08608606 -0.07246447 -0.0145346215 0.023117417
000190 6a e5 63 bd 7f 7a 4e 3b 23 99 a9 3d c0 ab 93 bd
       -0.05563871 0.0031506119 0.08281162 -0.07210493
0001a0 5c 6a d5 bc 98 21 58 3d 6e f9 06 bd 64 66 4d bc
       -0.026051693 0.052766412 -0.03295272 -0.012536619
0001b0 e3 56 e4 bb 96 fd 6b bd b0 45 ee 3c b9 cc aa 3d
       -0.0069683655 -0.057614885 0.029085964 0.08339829
0001c0 e2 c1 b9 bc 3a cd b8 3b 2d e0 16 3b f0 d4 66 3d
       -0.022675458 0.0056396993 0.0023021803 0.056355417
0001d0 9b a5 ea bb 7e 2b 37 3c 74 0a 4e bd 15 ee 71 bd
       -0.007160855 0.011179803 -0.050302938 -0.059064943
0001e0 ef fb 13 bc d8 29 80 3c 7a d5 72 bd 99 ea e4 bc
       -0.009032234 0.015644953 -0.05928562 -0.027943896
0001f0 e8 91 af 3c f3 0d 51 3d c3 39 9e bd d7 06 d4 bc
       0.021431878 0.051038694 -0.07725861 -0.025882168
000200 b4 30 a3 39 2c 6c b2 bd 9b be ab bd 9d 67 8f 3d
       0.0003112607 -0.087120384 -0.083859645 0.070021845
000210 c4 85 51 bd 34 6c 03 3d ef 3e 86 bd a5 ca 0b 3d
       -0.05115296 0.032085612 -0.065549724 0.034128804
000220 eb b4 84 bd 02 30 e4 3b e3 6d 8f bd c5 0a 07 3d
       -0.0647982 0.006963731 -0.07003381 0.032969255
000230 60 3c 4d 3d 51 38 a2 3d 14 92 f9 3c b9 65 4b 3d
       0.050106406 0.07920898 0.030465163 0.049657557
000240 f6 be 81 3d 51 20 b1 bd 33 f6 9b bc 83 e2 a2 3d
       0.06335251 -0.08648742 -0.019038295 0.0795336
000250 a8 65 da bc 7f 1d 33 bb 22 96 2a 3d 22 ae 05 bd
       -0.026659802 -0.0027330813 0.041647084 -0.03263677
000260 91 61 18 bd 98 08 72 bd a4 0a 8c bb 99 32 08 bb
       -0.03720242 -0.059090227 -0.0042737294 -0.0020782112
000270 7f 0d 60 bd 93 7d 33 bc 3e 49 ae bd e4 73 45 bd
       -0.05470037 -0.010955232 -0.085100636 -0.048206225
000280 b7 6a 9d 3d c1 47 49 bd 29 d7 cb 3c 03 1e 82 bd
       0.0768637 -0.049140695 0.02488287 -0.063533805
000290 53 b9 93 bd 24 3d fd 3c c7 49 88 3d 9e fc ee 3c
       -0.07213082 0.030912943 0.06654697 0.029173192
0002a0 b9 ba 22 3c e9 5f 98 bd 80 91 72 bc 55 95 5a 3d
       0.009932213 -0.074401684 -0.014805198 0.05336507
0002b0 14 c2 9c 3a d1 02 d1 bc 90 11 16 3d e3 38 75 bd
       0.0011959695 -0.025514038 0.036637843 -0.059868705
0002c0 26 8f 11 3c 6c 26 7b 3d 63 22 8c bd 85 08 09 3b
       0.008884227 0.06131594 -0.06842496 0.002090962
0002d0 21 ce 1c bc b3 c5 a2 3c 9e 62 9a 3c ff cd b5 3b
       -0.009570629 0.019869661 0.018845852 0.0055482383
0002e0 99 b7 71 bd 4f e1 4d bd f1 3e b3 3d 77 f1 98 3d
       -0.059012983 -0.0502637 0.087522395 0.07467931
0002f0 45 95 28 3b 1a ab 5c bd 8f 7f 52 3d 1c 40 5e 3b
       0.0025723737 -0.053874113 0.05139118 0.0033912724
000300 78 a5 af bd f5 ee 9f 3d b1 38 b8 3c a9 c1 00 3c
       -0.085764825 0.07809249 0.02248797 0.007858672
000310 03 c7 41 3d e0 c9 af bd 51 16 5b bd 57 a3 91 bd
       0.047308933 -0.085834265 -0.05348808 -0.07111233
000320 61 fb 84 bd 1a 6c 99 bd 6f f4 9e bd 21 c2 92 3c
       -0.06493259 -0.07491322 -0.07761466 0.017914834
000330 6a 81 b7 3b 22 6e 93 bd 2b 1b a6 3d 43 47 91 bd
       0.005600144 -0.071987405 0.08110651 -0.0709367
000340 17 b3 1f 3d 1a 44 44 bc 33 e2 90 3d 2f 3d 5e 3c
       0.038989153 -0.011979127 0.07074394 0.013564392
000350 c2 bc 86 3d 2c 12 80 3d b5 06 97 3d 24 09 a9 bd
       0.065789714 0.06253466 0.07374326 -0.082536966
000360 13 86 59 3d f0 d7 8b bd ed 9b 92 3d 69 b8 61 bd
       0.05310638 -0.06828296 0.07158647 -0.055107508
000370 6f 2c aa 3d d1 36 12 3d 13 d4 80 3d dd 0a e1 ba
       0.08309256 0.03569681 0.0629045 -0.0017169375
000380 83 8c 6f bd 3d 61 0e bc f8 35 8c bc a6 43 84 bc
       -0.05848361 -0.008690176 -0.017115578 -0.016145539
000390 37 ed 02 3c 77 7b 8b 3d c0 34 9a bd 4f b2 9e bc
       0.007991127 0.068106584 -0.075295925 -0.019372134
0003a0 e2 dc 26 bc 4e b7 8a 3d 09 d0 f6 3c 1e a4 90 bd
       -0.0101844985 0.06773244 0.030128496 -0.07062553
0003b0 20 46 7d 3d 53 52 a9 bc 31 25 9f 3b 23 7b 9d bb
       0.061834455 -0.020669138 0.0048567285 -0.004805939
0003c0 a1 fb 44 3d ad d9 7e bc e0 94 81 bd df a0 38 3d
       0.048091535 -0.015554828 -0.06327224 0.045075294
0003d0 4e 46 13 bd 51 79 3f 3d 87 f4 9d bd e1 62 25 3c
       -0.03595572 0.046746556 -0.077126555 0.010094375
0003e0 f6 5e 2b bc 73 a5 37 bc 24 b8 81 bd 05 ee 15 3d
       -0.010459652 -0.01120888 -0.0633395 0.036603946
0003f0 82 9b 31 3d 9f 21 04 bd de b6 a6 bd 84 dc e6 3c
       0.043361194 -0.032258626 -0.08140348 0.028181322

action_mean.bias f4 [3]
000000 c1 4c 52 3d 70 c1 f5 ba fb 6c 82 bc
       0.05134273 -0.0018749665 -0.015921107

term_mean.weight f4 [1, 128]
000000 c6 34 a0 3c e8 9d 42 3c d8 72 6f 3d d1 9a 0d 3d
       0.019556414 0.011878468 0.058459133 0.034571473
000010 5a 75 59 bd 9f b4 d5 3c 53 d8 0e bd c9 c7 1d 3d
       -0.05309043 0.026087103 -0.03487427 0.038520608
000020 0a ed 46 3d fd 37 91 3d 77 a5 1b 3d 32 ea f1 bc
       0.0485659 0.07090757 0.037999596 -0.029530618
000030 57 4b 25 bd e4 0c 0d bd fc 70 cd bc d1 3c 83 bd
       -0.040355053 -0.03443612 -0.02507829 -0.06408084
000040 78 e4 9c bd 0f 82 3f bd 36 91 b2 bc 88 f8 bc 3d
       -0.076607645 -0.046754893 -0.021797758 0.09227091
000050 77 55 77 bd 66 f8 ae 3d d0 f8 b6 3d bc a8 26 3d
       -0.06038424 0.08543472 0.08934176 0.04068826
000060 d1 f8 0e 3d d0 4c d2 bc f2 a2 8a 3d 8d 70 90 bd
       0.03490526 -0.025671393 0.067693606 -0.07052717
000070 9f 77 bc 3d 9a d7 34 3d 9e df 0f bd 72 f4 60 bd
       0.092025034 0.044150926 -0.035125367 -0.05492062
000080 17 85 cc bb 96 0f 7f bd 6a ed 5b 3c 52 85 98 bd
       -0.0062414515 -0.062270723 0.013423303 -0.07447304
000090 c1 86 22 3c b3 ab 75 bd 31 cd c4 bc 59 0a 94 3b
       0.009919823 -0.0599782 -0.024023624 0.004517835
0000a0 35 69 9b 3d 76 4f f5 3c af 09 71 bb 71 f8 2c bc
       0.07588426 0.029945116 -0.0036779454 -0.01055728
0000b0 6f 99 8a 3d d2 dc 5e bd e8 88 9f 3d 1b 76 92 3d
       0.067675464 -0.05440981 0.07789785 0.07151433
0000c0 ec 0c 13 3b 49 16 9c bd 7c 16 33 bc 81 12 91 3d
       0.0022438122 -0.07621438 -0.010930654 0.070836075
0000d0 4a c9 a7 3d 62 fc a4 3d f1 a0 2d 3d bc ff 31 3d
       0.0819269 0.08055951 0.042389814 0.043456778
0000e0 6d f5 60 bd b0 22 6f 3d 69 e4 96 3d c0 24 41 bd
       -0.054921556 0.05838269 0.073677845 -0.04715419
0000f0 41 f4 b3 3c a0 2c 88 bb c4 be 8f 3c 81 6b ce 39
       0.021967055 -0.0041557103 0.017547019 0.00039371478
000100 7b 11 97 3c 30 48 2c 3d 5a e1 a4 3d dd 8e 05 3d
       0.018440953 0.04206103 0.08050795 0.03260695
000110 eb ed 80 3d 5c e9 d9 bc 6e e5 61 3d e7 fb 73 bd
       0.06295379 -0.026600532 0.05515044 -0.059566405
000120 6c 55 01 bd 6b d7 4c 3d 86 0c 88 bd c3 85 01 3d
       -0.031575605 0.050010126 -0.06643014 0.031621706
000130 56 87 8f 3c 10 32 29 bd cf bd a9 bd 6b f2 a1 bd
       0.017520588 -0.04130751 -0.08288156 -0.07907566
000140 2c 9a 44 3d 8e 52 6e bb f8 5f 64 bd 4a fd aa 3c
       0.047998592 -0.0036365124 -0.055755585 0.02087273
000150 f7 9e 5d 3d 5e d2 1b bd 5d 2c 1b 3d aa 15 bd 3d
       0.05410668 -0.03804242 0.037884105 0.09232648
000160 f9 4b 6d bc 7f d4 fb 3c 9d 2c ec bb c2 f2 89 bd
       -0.014483445 0.030740974 -0.0072074668 -0.067357555
000170 a3 ba 5f 3d d3 8d e6 3c ae 0f 61 3c 50 9c 35 3c
       0.05462135 0.028143799 0.0137366485 0.011084631
000180 c4 91 37 bb bd 35 a7 bd df 57 dd bc 3c 5d d3 3c
       -0.0028010467 -0.08164547 -0.02701944 0.025801294
000190 24 ff 55 bc 51 fd 9c 3d 04 5d 6a 3d 1f bd 21 bd
       -0.013061319 0.07665504 0.057217613 -0.039487
0001a0 29 d4 6f 3c df 8a bc bb 76 5d 81 3d fb 02 30 bc
       0.014637985 -0.0057538594 0.063166544 -0.010742898
0001b0 ce a9 db 3c 80 04 c3 bc 3b ed a9 3d 27 3f 5e bd
       0.026814368 -0.023805857 0.08297201 -0.054259446
0001c0 c9 0c 49 3d 83 f1 a1 3d 0c d2 06 bd 56 40 84 3c
       0.04908446 0.07907393 -0.03291516 0.016143959
0001d0 37 cc c7 3b f4 f7 44 3d 14 f1 98 bc e8 bd 45 bc
       0.0060973424 0.04808803 -0.018669643 -0.012069203
0001e0 a2 de 9e 3d a0 ac 8a bd b0 e5 53 3d d0 29 03 bd
       0.077573076 -0.06771207 0.05173272 -0.032022297
0001f0 25 d9 ab bd c5 df e6 3c 5d e9 72 3d 3b f1 b1 39
       -0.083910264 0.028182874 0.059304584 0.00033939802

conv.0.weight f4 [128, 516, 1, 1]
000000 c6 a6 5d 3c 35 3d 49 bc 9e f4 92 bc aa 38 94 3b
       0.013528531 -0.012282659 -0.017938908 0.0045233564
000010 ac 2d c0 bc df cd b7 3c c0 e6 47 3d 54 25 d9 bc
       -0.023459278 0.022437034 0.048804045 -0.026507057
000020 ed 2c e5 bc b4 c5 6e bc b6 c7 f9 bc 0b d8 a3 3c
       -0.027975524 -0.014573503 -0.030490737 0.020000478
000030 aa 53 90 3c 41 e9 b3 3b 85 7c 89 bc fc 8e b3 3c
       0.01761802 0.0054904525 -0.016783008 0.021918766
000040 03 54 fc 3b 46 8e 6b 3c 24 9f 07 bc 77 df 91 bc
       0.0077004447 0.014377182 -0.008277688 -0.017806752
000050 0e ca e3 ba 61 84 52 3c 8b e9 01 bd 3e 50 81 bc
       -0.0017378943 0.012848944 -0.031716865 -0.015785333
000060 79 29 94 bb 01 57 de 3c 5d 62 d8 bc bc fe fa bc
       -0.0045215455 0.027141096 -0.02641409 -0.030639045
000070 bb 3c 22 bd 6d f0 0a bc d7 e7 24 3b 7d ae 23 bc
       -0.0396087 -0.008480174 0.0025162601 -0.009990332
000080 f9 62 0a 3c 53 50 d1 3b 98 59 ae ba da 1e a2 bc
       0.0084464485 0.006387749 -0.0013301848 -0.019790102
000090 d2 cf f0 bb 6c f1 b4 3c 7f f2 ee bc 1a 04 cf 3c
       -0.007348993 0.022087775 -0.029168366 0.02527051
0000a0 45 59 b4 3c fb 22 e7 3b f4 e6 54 3c e3 f7 83 3c
       0.022015223 0.0070537305 0.012994517 0.016109413
0000b0 1b ec ca 3c 18 00 29 3d 27 2e 5c bc f6 33 ac bc
       0.024770787 0.041259855 -0.013438738 -0.02102087
0000c0 73 e9 cb 3b dc 23 a5 3c b6 75 04 bd 2f 38 7f 3a
       0.0062228977 0.0201587 -0.03233882 0.000973585
0000d0 cc 88 02 bc 11 2d 7b 3c 48 01 21 3d e2 32 c8 3b
       -0.007967185 0.015330569 0.039307863 0.0061095813
0000e0 f8 5c 12 bd f4 66 61 3c 23 b8 fa bc bc 62 dc bb
       -0.035733193 0.013757456 -0.030605381 -0.0067256372
0000f0 df ec 76 bb d6 9d 31 3d b7 0c 2e 3d 29 86 3f 3d
       -0.0037677807 0.043363415 0.042492595 0.046758804
000100 77 b1 22 bd 19 9c 1e bc 90 a8 33 bd 5b 48 03 3c
       -0.039720025 -0.009680771 -0.043861926 0.008012856
000110 f7 03 46 3a 66 ce f1 bb 2d 4a 0d 3b e1 e7 c1 3c
       0.00075536914 -0.007379341 0.0021559105 0.023670139
000120 4b 80 0c bd 77 1a 1e bd 97 2b c5 3c 10 bd 04 3d
       -0.034302037 -0.038599458 0.024068637 0.032406867
000130 7f 6a b5 3c 2e 5e 48 bc 6e b1 d0 3c 00 fb 3a 3d
       0.022145508 -0.012229485 0.02547523 0.04564953
000140 95 db 86 3b e5 16 05 3d 6a ba 3d 3d 33 f1 7b 3c
       0.0041155317 0.032492537 0.046320356 0.015377331
000150 05 a5 13 3d 3c 41 5e bc 94 3b c7 bc 68 84 eb 3b
       0.036046047 -0.013565358 -0.024320401 0.007187415
000160 97 6c 9b 3c a4 61 37 bc 4a f2 cf 3c 94 a4 1f bd
       0.018972678 -0.011192713 0.025384087 -0.038975313
000170 7e 1f c4 bc af 0f 17 3d 1e 29 03 bc 3a ec f7 bc
       -0.023940798 0.03688019 -0.008005409 -0.030264009
000180 45 a2 90 3c 30 79 2f 3d e1 6c 1d 3d af 7f 04 3d
       0.017655501 0.042840183 0.038433913 0.03234833
000190 fc 5b 6c 3c e7 27 bd 3c 20 95 8d 3c 9e f1 f3 3c
       0.014426228 0.023090316 0.017283022 0.029778298
0001a0 10 30 8a 3c f5 bf 2e 3d 2f 3b 21 bd 14 f2 2d 3d
       0.016868621 0.042663533 -0.039363082 0.04246719
0001b0 3f ac 47 3c 1b 5b 96 bb 0e 67 55 3c 84 68 b8 bc
       0.012187063 -0.0045884973 0.013025058 -0.022510774
0001c0 23 38 20 bd c5 38 13 bd ed 3e 1d bd fc be 3a 3d
       -0.039116036 -0.03594281 -0.03839009 0.045592293
0001d0 65 aa aa bc 61 22 08 bc e4 31 d0 3c be f9 f3 bc
       -0.020833204 -0.008308978 0.025414415 -0.029782172
0001e0 7b a1 85 bc 66 33 bb 3c 29 32 0f bd b2 c5 57 3b
       -0.016312351 0.022851657 -0.034959946 0.0032924232
0001f0 1c 05 dc ba c6 58 c6 3c 91 c6 20 bd cd 46 32 3d
       -0.0016786191 0.024212252 -0.039251868 0.043524552
000200 32 59 37 3d 39 28 8c bb 40 d9 5c bc 70 7d fc bc
       0.044762798 -0.004277256 -0.013479531 -0.030821532
000210 94 a0 c5 3c c0 6b ef 3c e6 bb 0a 3d 29 55 86 3c
       0.024124421 0.029226184 0.0338706 0.01639803
000220 51 8d bd 3c 28 a7 d3 3c 95 28 63 3c cf c0 21 3d
       0.023138674 0.025836542 0.013864656 0.039490517
000230 5e 11 28 bc d7 9b 4d 3b e2 70 4c bc 5c ee 88 3c
       -0.010258047 0.0031373405 -0.012478085 0.016715221
000240 b0 d3 42 bc 19 2e 5c 3c ce 8b 07 bd eb dd 71 bc
       -0.011891291 0.013438725 -0.033092313 -0.014762382
000250 7c 2e 77 3c a8 41 46 3d e1 af 34 3c 54 62 cf bb
       0.015086766 0.04840246 0.011028261 -0.0063288603
000260 bb 3b 6d bc 33 52 70 bc 6f 94 18 bd 40 80 89 3b
       -0.014479573 -0.014668035 -0.037250932 0.004196197
000270 02 ce cf bc 9e cc 79 3c 2d 92 be bc 9b 14 0b 3d
       -0.025366787 0.015246538 -0.023263061 0.033955198
000280 e2 f8 e6 bb 97 ed 42 3b 81 bb 87 bb 6f 30 ce bb
       -0.007048712 0.0029743665 -0.0041422253 -0.006292395
000290 23 4b 1f bd 57 ef a5 3c ad 79 2f 3c 73 90 de bb
       -0.038890015 0.020255728 0.010710162 -0.006792122
0002a0 7a aa 0d 3c 59 25 86 3c 12 5a 0e bd 62 8d 2f bd
       0.008646602 0.01637523 -0.034753866 -0.042859443
0002b0 19 a8 f3 bc 94 3d 48 bb 2e 67 90 3c c3 28 d7 3b
       -0.029743241 -0.0030554282 0.017627325 0.0065661385
0002c0 63 8f 01 bd f3 4f 8e bc a3 49 01 bd d4 50 c5 3c
       -0.031630885 -0.017372107 -0.031564366 0.024086393
0002d0 4e ed 1c bc 8d 53 08 bc 0f f5 0c 3d 5b db ee 3c
       -0.009578062 -0.008320701 0.034413394 0.029157331
0002e0 a1 35 99 3a 7f b2 f0 bc f2 df 27 bd b2 ba 42 3d
       0.0011688956 -0.029381989 -0.040985055 0.047541328
0002f0 db 47 f7 3c b5 3d be bc ae d0 c8 3b 77 35 11 3c
       0.03018563 -0.023222784 0.006128392 0.008862845
000300 e3 e1 f9 3c fb 2e 20 bd 98 6d 09 3d ed ea da 3c
       0.030503219 -0.039107304 0.033551782 0.02672335
000310 a3 44 20 3c 34 75 0a bd c3 13 13 3d b0 ca 93 3c
       0.009781989 -0.03380318 0.035907518 0.018040985
000320 6d 1d c8 3a 57 cf 21 bd 44 00 d0 bc f3 c9 9c bc
       0.0015267559 -0.039504375 -0.025390752 -0.019139266
000330 c4 2e 23 bd 27 93 ed bb 93 90 a5 3c e3 3c d0 bb
       -0.03983952 -0.007250208 0.02021054 -0.0063549145
000340 90 29 8b 3c f2 e2 a7 bc c1 7e eb bc 59 84 4d bb
       0.016987592 -0.020493958 -0.028746964 -0.0031359403
000350 96 19 74 bc d4 db ae bc 7f fb db bc 5a be 98 bc
       -0.014898678 -0.021345057 -0.026853321 -0.018645454
000360 a8 db 17 3d 9b 1f 93 bb 63 63 1a bc 95 8c fe 3c
       0.037074715 -0.0044898516 -0.00942311 0.031072894
000370 57 a5 28 3c cc fe 96 3b 2a ef 11 3d 7f 4d cf bb
       0.010293326 0.004608011 0.035628475 -0.006326377
000380 98 5a cc 3c b8 93 97 3c cf 43 0e 3d 89 00 26 3d
       0.024945542 0.018503055 0.034732636 0.040527854
000390 dc 16 a0 bb 99 c3 04 3d ca 59 89 3c c7 e3 03 3d
       -0.0048855375 0.0324131 0.016766448 0.032199647
0003a0 94 4d ea bc 8c ec 69 bb 44 06 1b 3d 56 54 fe 3c
       -0.028601445 -0.0035693971 0.037847772 0.031046074
0003b0 28 fd af bc 6b ab 12 bb 17 7d 16 3d db 67 22 bd
       -0.021483019 -0.0022380005 0.03674039 -0.039649826
0003c0 fa a2 11 bb ae 55 e2 bc 3d 99 6e bc 25 b5 17 3d
       -0.0022222386 -0.027628746 -0.014562902 0.037037987
0003d0 8f 63 d0 3c 11 58 69 bb 30 3c 28 3d cb 4d 41 3d
       0.025438098 -0.003560547 0.041073024 0.04719333
0003e0 7f 10 3c 3b d9 be 29 bc 18 4b 96 3c a6 f2 95 3c
       0.0028696356 -0.010360443 0.018346354 0.01830418
0003f0 43 6b b3 bc e2 bd 54 bb 0d cb 19 bd 77 33 f4 3c
       -0.021901732 -0.0032461812 -0.03754716 0.029809697
