ddpg_runs/ddpg_exp1/weights/ddpg_test/ddpg_epoch_80.pt (torch, 673124 bytes, 16 tensors)

conv.0.weight f4 [128, 516, 1, 1]
0	0x3d1409bc	0.036142096
1	0x3cf43ee8	0.029815152
2	0xbce58c22	-0.028020922
3	0xbb98c5e5	-0.0046622627
4	0x3bd75a01	0.0065720086
5	0x3b587c3f	0.003303304
6	0xbcc09f4e	-0.023513462
7	0x3c486704	0.012231592
8	0xbcdf5339	-0.027261363
9	0x3c8672ee	0.016412225
10	0x3b8aa571	0.004231148
11	0xbca48177	-0.020081265
12	0x3ce68a14	0.028142013
13	0x3cae9782	0.021312479
14	0x3d13fab4	0.03612776
15	0x3d1dc58f	0.038518485
16	0x3d04c9da	0.032419063
17	0x3d10a3cb	0.035312455
18	0xbbe9c521	-0.0071340953
19	0xbc894f17	-0.016761346
20	0xbc5e3ba8	-0.013564028
21	0x3c09cdc6	0.008410877
22	0xbd13a42b	-0.036045235
23	0x3c479605	0.012181764
24	0xbd080045	-0.033203382
25	0xbcc1c6a7	-0.023654295
26	0x3bbcacca	0.0057579027
27	0x3c97b73b	0.018519988
28	0xbd2fe9bb	-0.042947512
29	0x3d23bf24	0.039977208
30	0xbd042424	-0.03226103
31	0x3b97d696	0.004633735
32	0x3d1a54cb	0.03767852
33	0x3d105720	0.03523934
34	0xbd33c478	-0.04388854
35	0x3c3fbc86	0.011702662
36	0xbbf3ad2e	-0.007436416
37	0xbd14b76a	-0.03630773
38	0x3d23df85	0.040008087
39	0xbcfb6cf8	-0.030691609
40	0x3d118449	0.035526548
41	0x3bd6687f	0.0065432186
42	0xbd1007b4	-0.035163596
43	0xbd260371	-0.040530626
44	0x3cc82f40	0.024436593
45	0x3c9a080a	0.018802661
46	0xbd16d600	-0.03682518
47	0xbd0876c7	-0.0333164
48	0xbb7cbd58	-0.0038565006
49	0xbd2693cf	-0.040668305
50	0x3ca7daba	0.02049004
51	0x3ce8b5f0	0.028407067
52	0xbc79b165	-0.015240048
53	0x3cd32b47	0.025777472
54	0xbd310a16	-0.04322251
55	0xbc352d1e	-0.01105812
56	0xbcc33505	-0.023828993
57	0xbcb7e60a	-0.022448558
58	0x3c363e1a	0.011123205
59	0x3cfb52f0	0.030679196
60	0xbcae2caa	-0.021261532
61	0x3d11a375	0.035556275
62	0xbc700ada	-0.014651025
63	0xbcea1722	-0.028575484
64	0xbcc40b68	-0.02393122
65	0xbb8dfc7e	-0.004333078
66	0xbca1414b	-0.019684454
67	0xbbc7fecb	-0.0061033717
68	0x3cd0c0b8	0.02548252
69	0x3c5290cb	0.012851904
70	0x3d2e0b47	0.042491224
71	0x3ccadbd5	0.024763027
72	0xbd078b71	-0.033091966
73	0xba88ab89	-0.0010427098
74	0xbcbe92d7	-0.023263378
75	0xbc758845	-0.0149861025
76	0xbcc7dbcb	-0.024396798
77	0xbd11b9b2	-0.035577483
78	0x3d13062a	0.03589455
79	0x3cf203fa	0.029542912
80	0xbc460af0	-0.012087569
81	0xbbce0dcb	-0.0062882653
82	0x3d0ac7a7	0.03388181
83	0x3b25c562	0.0025294651
84	0x3cae40f0	0.021271199
85	0x3ce8a340	0.028398156
86	0xbc20f5fc	-0.009824272
87	0x3a06403a	0.0005121265
88	0xbb306d8c	-0.0026920764
89	0xbc29cf2a	-0.010364333
90	0x3cecba62	0.028897468
91	0x3cf95fa0	0.030441105
92	0xbc9b8fad	-0.018989408
93	0x3d24477f	0.040107246
94	0xbbec4689	-0.007210557
95	0x3c50660b	0.012719641
96	0x3c1201f0	0.008911595
97	0x3d343576	0.043996297
98	0x3d295ea1	0.04135001
99	0xbcb33ea6	-0.021880459
100	0x3b5a2961	0.0033288824
101	0x3bcf9b51	0.006335654
102	0xba86ed52	-0.0010294116
103	0x3d19712e	0.037461452
104	0x3d1bfc79	0.038082574
105	0x3c728732	0.014802741
106	0x3c8218f6	0.015881043
107	0x3c10cfa6	0.00883857
108	0xbca4a5e4	-0.020098634
109	0x3c8c0bf0	0.017095536
110	0x3d0093bf	0.0313909
111	0x3b552825	0.0032525149
112	0x3cf711b3	0.030159807
113	0x3cb58891	0.022159846
114	0xbbf1cc0f	-0.007379062
115	0x3a3840ed	0.00070287177
116	0xbc20e780	-0.009820819
117	0xbb756a6c	-0.0037447466
118	0xbc53f7dd	-0.012937513
119	0x3ca5109d	0.020149523
120	0x3d18083f	0.03711724
121	0xbb475a31	-0.0030418749
122	0x3d250add	0.040293563
123	0x3d055b26	0.03255763
124	0xbbd44878	-0.0064783655
125	0xbc04496c	-0.008074146
126	0xbd30aec0	-0.043135405
127	0x3cfa706c	0.030571185
128	0x3cdc8c8b	0.026922485
129	0xbc798d79	-0.015231484
130	0x3d231b87	0.039821174
131	0xbd02d7b6	-0.031944
132	0x3ca7c951	0.020481737
133	0xbcad982a	-0.021190722
134	0x3b224c91	0.0024764875
135	0xbbe18c1a	-0.0068831565
136	0x3ca63fc6	0.020294081
137	0x3c6dc48b	0.0145121915
138	0x3d18da74	0.037317708
139	0xbd121faa	-0.03567473
140	0x3c8ac8fa	0.016941536
141	0xbb9de1e4	-0.004818188
142	0x3ac59d4d	0.0015076787
143	0xbce4a650	-0.027911335
144	0xbb2fec8f	-0.002684388
145	0x3c0d352e	0.008618636
146	0x3aad6e25	0.0013231678
147	0x3d18056c	0.037114546
148	0xbd014b49	-0.03156594
149	0xbc8be38a	-0.017076273
150	0x3cb14157	0.021637602
151	0x3c8bd0ac	0.017067276
152	0xbc9fdb2c	-0.019513689
153	0x3cd570c6	0.026054751
154	0xbc651502	-0.013982059
155	0xbd201b79	-0.0390887
156	0x3d01c776	0.03168436
157	0xbc3bbcff	-0.011458634
158	0xbcaf9c9b	-0.02143698
159	0xbc9f0278	-0.019410357
160	0xbd31c3ca	-0.04339961
161	0x3d110085	0.035400886
162	0xbcbb9523	-0.022898262
163	0x3c78163f	0.015142023
164	0x3cda3579	0.026636826
165	0xbd03d219	-0.032182787
166	0xbd091194	-0.03346403
167	0xbd1d91ee	-0.038469248
168	0xbc76996e	-0.015051229
169	0x3d1e5663	0.038656604
170	0x3d0ba279	0.034090493
171	0x3cd8f818	0.026485488
172	0x3cb85440	0.022501111
173	0x3d2ecda5	0.042676587
174	0x3d111c4b	0.035427373
175	0x37b9fec9	2.2172362e-05
176	0x3ce5f65c	0.028071575
177	0x3d088488	0.033329517
178	0x3d12d0b3	0.035843562
179	0x3c30e00d	0.010795605
180	0xbd1d8437	-0.038456168
181	0xbcc61247	-0.024178637
182	0x3c9267a9	0.017871695
183	0xbcaf043e	-0.021364328
184	0x3c2ce406	0.010552412
185	0xbc932371	-0.017961236
186	0xbd2573ad	-0.04039352
187	0xbc8fda1a	-0.017560054
188	0xbbb2d6c9	-0.0054577333
189	0x3d310890	0.043221056
190	0x3d233099	0.03984127
191	0xbcc00b36	-0.023442846
192	0xbc9e4258	-0.019318745
193	0xbca24ef2	-0.019813035
194	0xbd3242f1	-0.04352087
195	0xbceaa15d	-0.028641397
196	0xbc97166b	-0.018443307
197	0x3c0498cb	0.008093069
198	0x3d2229f6	0.0395908
199	0x3d0da929	0.03458515
200	0xbc8a3806	-0.016872417
201	0xbd01b69a	-0.031668283
202	0x3c9b0bc3	0.018926507
203	0xbc8930c2	-0.016746882
204	0xbb3c3e6c	-0.002872373
205	0xbd1d2918	-0.03836927
206	0xbc6f9653	-0.014623242
207	0xbc755b20	-0.014975339
208	0xbcb6717a	-0.022270907
209	0xbd0e8731	-0.034796897
210	0xbc45557a	-0.012044305
211	0xbac1763e	-0.001475997
212	0xbd07c28a	-0.03314451
213	0x3d01127c	0.03151177
214	0x3cd12213	0.025528943
215	0x39ca0c06	0.000385374
216	0xbd0e56cf	-0.034750756
217	0x3c50cd79	0.012744301
218	0x3c92bde4	0.017912813
219	0xbd089e10	-0.033353865
220	0x3abd9db9	0.0014466561
221	0xbd0797cd	-0.033103753
222	0x3c01b92d	0.0079176845
223	0x3cdc2e3a	0.026877511
224	0x3d2815e9	0.04103652
225	0x3c448d0b	0.011996518
226	0x3c0d10c0	0.008609951
227	0xbce77740	-0.028255105
228	0xbd212cad	-0.039349247
229	0x3c19f410	0.009396568
230	0x3c5720c1	0.013130368
231	0xbd2faad3	-0.04288752
232	0xbc88568f	-0.016642837
233	0x3d073227	0.033006813
234	0xbd2fdb5c	-0.042933807
235	0xbcc61106	-0.02417804
236	0xba5ffa7c	-0.00085441
237	0xbc81bc78	-0.01583694
238	0xbd105ee8	-0.03524676
239	0xbd31cb4b	-0.043406766
240	0xbd1b3420	-0.037891507
241	0x3c3a4d7a	0.011371011
242	0xbbaceab2	-0.0052770013
243	0x3d0c2f65	0.034224886
244	0x3b8dd7c7	0.004328701
245	0x3c057d62	0.008147569
246	0xbc4ad1e2	-0.0123791415
247	0x3d0506d5	0.03247722
248	0x3d2ef050	0.04270965
249	0x3c9783ae	0.018495407
250	0xbd2164db	-0.039402824
251	0x3cbe3784	0.023219831
252	0xbd005e2e	-0.031339817
253	0xbd0be817	-0.034156885
254	0xbbdfcc43	-0.00682977
255	0x3b10240d	0.0021994144

conv.0.bias f4 [128]
0	0xbba44cc5	-0.0050140345
1	0xbcc39b8c	-0.023877881
2	0xbce28dca	-0.0276555
3	0x3ccf8b9a	0.025335122
4	0x3d2db100	0.04240513
5	0xbd145670	-0.036215246
6	0x3cc64379	0.024202095
7	0xbd27efe9	-0.04100028
8	0xbc8d157e	-0.017222162
9	0xbc9458e3	-0.01810879
10	0x3cd39942	0.025829915
11	0xbccfd831	-0.025371643
12	0xbd1165a0	-0.035497308
13	0xbc5c9f1f	-0.013465672
14	0xbd0359fa	-0.03206823
15	0xbd21e806	-0.039527915
16	0x3c32d2bd	0.010914502
17	0xbc5e73c9	-0.01357741
18	0x3d24b04f	0.040207203
19	0x3c92bf58	0.017913505
20	0xbc089b45	-0.0083378
21	0x3cb21462	0.021738235
22	0xbc7613cd	-0.015019369
23	0xbcd3fe3c	-0.025878064
24	0x3ca6f1b4	0.020378925
25	0x3d1863e1	0.037204627
26	0xbb6e0422	-0.0036318381
27	0x3cce09d2	0.025151167
28	0x3ba38efd	0.0049914108
29	0x3c3d8da8	0.011569418
30	0x3d0f2401	0.034946445
31	0xbcb104a2	-0.021608654
32	0x3ca8cf86	0.020606767
33	0xbd1e1043	-0.038589727
34	0x3c620031	0.013793991
35	0xbc8b5cfe	-0.017012116
36	0x3d13e92e	0.03611105
37	0x3d2ab222	0.041673787
38	0x3bee560f	0.0072734426
39	0x3d313874	0.04326673
40	0x3d31607b	0.0433049
41	0xbcaeac2d	-0.021322334
42	0x3d084c76	0.033276044
43	0x3c0489f0	0.0080895275
44	0xbcce9f3f	-0.025222419
45	0xbd30e5f3	-0.043188047
46	0xbc2b68fe	-0.010462044
47	0xbccc6869	-0.02495213
48	0x3c6d02a5	0.014465963
49	0x3b000a4f	0.0019537394
50	0xbc40676b	-0.011743407
51	0x3c5231e1	0.012829275
52	0xbb35758f	-0.0027688479
53	0xbcc24e79	-0.02371906
54	0x3b6069b0	0.0034242682
55	0x3ca4ef66	0.020133685
56	0x3ce9c836	0.02853785
57	0x3b9bb187	0.0047513875
58	0xbcce8982	-0.025212053
59	0x3d0d3090	0.03447014
60	0xbccf50f1	-0.02530715
61	0xbccf8cbc	-0.025335662
62	0x3d0873ab	0.033313435
63	0xbc8ac089	-0.016937511
64	0x3c404780	0.011735797
65	0x3d26ba2f	0.040704902
66	0x3d32c015	0.043640215
67	0x3d0589a0	0.032601953
68	0xbc369ed8	-0.01114627
69	0xbc66d77e	-0.014089463
70	0x3d1e1de2	0.038602717
71	0x3b01007b	0.0019684124
72	0x3d00875d	0.031379092
73	0xbd101690	-0.035177767
74	0xbc673f51	-0.014114217
75	0xbc09a025	-0.008399998
76	0x3d159329	0.036517296
77	0xbd044483	-0.0322919
78	0x3c31ed3f	0.0108597865
79	0x3d0dbdbe	0.03460478
80	0xbd09e824	-0.033668652
81	0x39d4ee7a	0.0004061347
82	0xbc3f67a5	-0.011682426
83	0x3d3379aa	0.0438172
84	0xbc8814a0	-0.016611397
85	0xbd05c389	-0.03265718
86	0xbbcf0eee	-0.0063189184
87	0x3d330b6c	0.043712065
88	0x3cea565c	0.028605632
89	0xbcb01846	-0.02149595
90	0x3aacec5e	0.0013193002
91	0x3cbf42b9	0.023347246
92	0x3cb2a53d	0.021807307
93	0x3b0d5e68	0.0021571163
94	0x3d281e27	0.04104438
95	0x3c3583bc	0.011078771
96	0x3c1f5c28	0.009726562
97	0xbc3b6a04	-0.01143885
98	0x3bbd5d73	0.0057789623
99	0xbbebebe5	-0.0071997517
100	0x3d267064	0.040634528
101	0xbbf8acea	-0.0075889723
102	0x3c63f379	0.013913029
103	0x3b001c18	0.0019547995
104	0x3d1d2bbe	0.038371794
105	0xbcb2579e	-0.021770295
106	0xbd098982	-0.033578403
107	0xbd0b0565	-0.03394069
108	0x3b5d702f	0.003378879
109	0xbd2e6134	-0.04257317
110	0xbce563ee	-0.028001752
111	0xbc61f6f2	-0.0137917865
112	0x3ce7bfa8	0.028289631
113	0xbabff821	-0.0014646092
114	0xbc458039	-0.012054496
115	0xbce024cd	-0.027361298
116	0xbce922df	-0.02845901
117	0x3b86776e	0.0041035926
118	0x3d1505c7	0.036382463
119	0x3c1d7e94	0.009612698
120	0xbcea7a9d	-0.02862292
121	0x3b43a093	0.0029850348
122	0xbcdf505c	-0.027259998
123	0xbc6ec2aa	-0.014572779
124	0xbc623005	-0.013805394
125	0x3b026bd8	0.0019900706
126	0xbc2f18c5	-0.010687058
127	0x3cf832ad	0.030297602

conv.2.weight f4 [64, 128, 1, 1]
0	0xbaed896a	-0.0018122618
1	0xbabadd8a	-0.0014256698
2	0xbd8a853c	-0.06763694
3	0xbd33f5e5	-0.043935675
4	0x3d5b47d0	0.053535283
5	0x3d7ccf84	0.06172134
6	0xbce4fa77	-0.027951462
7	0xbd517e34	-0.051145747
8	0x3d9bb01f	0.07601952
9	0x3cc75106	0.024330627
10	0xbd90c763	-0.0706928
11	0x3d3a4c63	0.045483004
12	0xbd02a662	-0.031896956
13	0xbd35ff06	-0.044432662
14	0x3c7b6f5b	0.015346373
15	0xbd8e2fdd	-0.06942723
16	0xbca5385d	-0.020168478
17	0x3ab82181	0.0014048071
18	0x3d6b8bb1	0.057506267
19	0x3d16b5c7	0.03679445
20	0xbd407b44	-0.046992555
21	0x3c99d4b3	0.01877818
22	0xbd91826e	-0.071049556
23	0xbd084035	-0.033264358
24	0xbd0ed7c3	-0.034873735
25	0x3dafd669	0.08585817
26	0xbd70b540	-0.058766603
27	0x3c285973	0.010275233
28	0xbd9257a6	-0.07145624
29	0x3d80ba19	0.06285495
30	0xbd3a1689	-0.045431647
31	0x3a351fd2	0.00069093436
32	0x3d7612d9	0.06007657
33	0xbd406fa7	-0.04698148
34	0x3d3c71bb	0.0460069
35	0x3d89396c	0.067004055
36	0xbd09f317	-0.033679094
37	0xbd875a71	-0.06609047
38	0x3cb2ad58	0.021811172
39	0x3d1695a3	0.0367638
40	0x3da9e7d8	0.08296174
41	0x3dac5d49	0.0841623
42	0xbda215f5	-0.07914344
43	0xbcf85ca2	-0.030317608
44	0x3d774d18	0.060376257
45	0xbd0d6ceb	-0.0345277
46	0x3d7ed13b	0.062211256
47	0xbd47496c	-0.048654005
48	0xbd9ceee4	-0.07662752
49	0xbd83e0c9	-0.06439359
50	0x3b16c923	0.002300807
51	0x3cfcd22b	0.030861935
52	0x3ce6a6a4	0.028155632
53	0xbcb1d6c8	-0.021708861
54	0x3db4771a	0.08811779
55	0xbcb0ee3b	-0.021597972
56	0xbc30f899	-0.010801458
57	0xbc65272b	-0.013986389
58	0x3d2b3cb0	0.041805923
59	0xbce7635f	-0.028245626
60	0x3d81eac9	0.0634361
61	0x3ae5565e	0.0017497053
62	0x3d91fd14	0.07128349
63	0xbcde7218	-0.027154014
64	0xbd9490d1	-0.07254184
65	0xbc3eea6d	-0.011652571
66	0xbd98f44f	-0.07468473
67	0x3c5bb59d	0.013409999
68	0xbc8cc388	-0.01718308
69	0x3d89f2aa	0.067357376
70	0xbd42c29e	-0.047548883
71	0xbd5a30f9	-0.05326936
72	0x3d9119fb	0.070850335
73	0x3d44e999	0.04807434
74	0xbd8296ba	-0.06376405
75	0xbc47d6f4	-0.012197245
76	0x3c881b59	0.016614603
77	0x3c46cb67	0.012133456
78	0x3d92edee	0.07174288
79	0x3d341625	0.04396643
80	0x3cad70bd	0.021171922
81	0xbc042e32	-0.008067654
82	0xbd9f8427	-0.07788878
83	0xbc977f42	-0.018493298
84	0x3b031eb6	0.0020007319
85	0xbc63e175	-0.013908734
86	0x3c9ce2f5	0.01915119
87	0x3ca0817d	0.019592995
88	0xbcef30cb	-0.029198071
89	0xba8f91a4	-0.0010953438
90	0x3d479375	0.04872461
91	0xbda3d537	-0.07999652
92	0x3da1a2ec	0.07892403
93	0x3b6f0bd9	0.0036475568
94	0x3c9a9535	0.018869976
95	0x3da25b2c	0.07927546
96	0xbd4c77f4	-0.049919084
97	0x3c536fbe	0.012905059
98	0x3cc4b348	0.02401127
99	0xbd69caf1	-0.057078306
100	0x3d7f9e8b	0.062407058
101	0xbd543ba7	-0.0518147
102	0x3d584602	0.05280114
103	0x3d920fca	0.07131918
104	0x3d24cbf5	0.04023357
105	0x3d990b5a	0.07472868
106	0x3da00d05	0.07814983
107	0xbd9fe539	-0.078073926
108	0xbd98b486	-0.07456307
109	0x3d12e3d9	0.035861824
110	0x3d40ca68	0.04706803
111	0xbd9275f6	-0.071514055
112	0xbd9c58d4	-0.0763413
113	0xbdaf689e	-0.08564876
114	0xbce1f993	-0.027584827
115	0xbd7fac39	-0.062420104
116	0x3cf674fe	0.030085083
117	0x3d69928a	0.057024516
118	0xbd900078	-0.070313394
119	0x3d80c0c8	0.0628677
120	0xbd107018	-0.03526315
121	0x3d29a3e1	0.041416053
122	0xbd976015	-0.07391373
123	0xbd1e76cb	-0.03868751
124	0x3d7500a8	0.05981508
125	0x3d73281f	0.059364434
126	0xbda4b88e	-0.080430135
127	0x3c22855e	0.0099194925
128	0xbd842cac	-0.06453833
129	0x3c754eba	0.014972383
130	0xbc348463	-0.011017892
131	0x3db38f56	0.087675735
132	0x3cd977b6	0.02654634
133	0x3db2b732	0.08726348
134	0x3cef6859	0.029224562
135	0x3d737650	0.059439003
136	0x3d97cb1c	0.07411787
137	0x3d934edb	0.07192775
138	0xbcf65e58	-0.030074283
139	0x3cd70f72	0.026252482
140	0xbc2d5994	-0.010580439
141	0xbd856c98	-0.06514853
142	0xbd0d9ebc	-0.03457521
143	0x3d196daf	0.037458118
144	0xbbbf273c	-0.0058335345
145	0x3bd7a2f1	0.0065807034
146	0x3c1c6f64	0.009548042
147	0xbd4e4960	-0.050362945
148	0x3c351372	0.011051999
149	0xbd8fbefb	-0.070188485
150	0x3b322726	0.0027183979
151	0xbcc0bd4b	-0.023527762
152	0xbd4340c5	-0.04766919
153	0x3d45b7e8	0.04827109
154	0x3d1e950e	0.03871637
155	0x3d7f4d51	0.062329594
156	0x3d4175ae	0.04723137
157	0x3d70f884	0.058830753
158	0xbdad28cb	-0.08455046
159	0xbd98b247	-0.07455879
160	0x3d98d7c4	0.07463029
161	0xbc0a199d	-0.008428958
162	0xbc8709f7	-0.016484244
163	0x3a7e286e	0.00096953555
164	0xbdb41801	-0.08793641
165	0x3d572924	0.05252947
166	0x3cd7852d	0.02630862
167	0x3cf10448	0.029420987
168	0x3d61ab41	0.05509496
169	0x3cec04ba	0.028810848
170	0x3da616d8	0.08109826
171	0xbc7ef463	-0.015561196
172	0xbd3e3209	-0.046434436
173	0xbd5c5e81	-0.053801063
174	0x3d17552a	0.036946453
175	0xbb2749bf	-0.0025526134
176	0x3d271f4f	0.040801343
177	0x3d7072d9	0.058703277
178	0x3db13c2f	0.08654057
179	0x3d6337a1	0.055472974
180	0x3d7dc8e7	0.061959174
181	0x3d327ab6	0.043574058
182	0xbccb7d9e	-0.024840172
183	0xbd5b1df6	-0.05349537
184	0x3d1a4a4f	0.037668522
185	0xbd8dd050	-0.06924498
186	0x3c809ab7	0.015698774
187	0xbd70f569	-0.05882779
188	0xbd8629f2	-0.06550969
189	0xbc5064a4	-0.012719307
190	0xbd0c0d87	-0.03419259
191	0xbd746aaf	-0.059672054
192	0x3d5176a8	0.05113855
193	0x3c55fe4d	0.013061118
194	0x3db1ba43	0.08678105
195	0x3c79512e	0.015217109
196	0x3dae6030	0.0851444
197	0x3cccc22e	0.024994936
198	0xbd358353	-0.044314694
199	0x3da14f49	0.078764506
200	0xbd76f3be	-0.060291044
201	0xbd4021b8	-0.046907157
202	0x3ca7d0c8	0.020485297
203	0xbd23c2d3	-0.03998072
204	0xbd84dae8	-0.064870656
205	0xbd16ef19	-0.036849115
206	0x3d8abc96	0.06774251
207	0x3d09a85e	0.033607833
208	0xbdab2d54	-0.08358255
209	0x3d9f6dcf	0.07784616
210	0xbcd87839	-0.026424514
211	0x3d6927ae	0.056922607
212	0xbc825114	-0.015907802
213	0xbd984cfa	-0.07436557
214	0x3d4ecd2c	0.050488636
215	0x3d887416	0.06662767
216	0xbc8d5e36	-0.017256837
217	0x3d279c0c	0.040920302
218	0xbc15e79d	-0.009149459
219	0xbd1d266b	-0.038366716
220	0x3d92cfbe	0.0716853
221	0x3bd5b62d	0.006521961
222	0x3cb465c3	0.02202118
223	0xbb4b3523	-0.0031007014
224	0xbbd31f16	-0.0064429147
225	0x3d5ab0c2	0.053391226
226	0xbd779305	-0.060442943
227	0xbae9cd0d	-0.0017837599
228	0x3bc32f6f	0.0059565823
229	0xbbef5c5f	-0.0073047127
230	0x3d5c793b	0.053826552
231	0x3cfbb096	0.030723851
232	0xbd2f0605	-0.04273035
233	0xbdb2c4c2	-0.08728935
234	0xbd4dbba2	-0.05022777
235	0x3cef97c4	0.029247172
236	0xbdaee341	-0.08539439
237	0x3c8fbdf8	0.017546639
238	0xbd9398b1	-0.07206858
239	0x39c8badd	0.00038286197
240	0xbd05059f	-0.032476064
241	0xbd3c7cbf	-0.046017405
242	0xbd444409	-0.047916446
243	0xbd7aa3ff	-0.061191555
244	0xbd9833b7	-0.07431739
245	0x3db2d21f	0.08731484
246	0xbba34559	-0.004982632
247	0xbc2f90fd	-0.01071572
248	0xbdaf4f47	-0.08560043
249	0xbd1c8969	-0.038216982
250	0x3d674f41	0.056472067
251	0x3d0b413e	0.033997767
252	0x3d838d26	0.06423406
253	0x3ba9b8f9	0.005179521
254	0x3d7279b9	0.059198115
255	0xbbbde12c	-0.005794665

conv.2.bias f4 [64]
0	0xbc84c28e	-0.016206052
1	0xbd152e73	-0.03642125
2	0x3d1b7b1e	0.03795921
3	0xbd701ac2	-0.05861927
4	0xbaf8d7f5	-0.0018985259
5	0x3d823d41	0.063593395
6	0x3d3f6d18	0.0467349
7	0x3d9e1b73	0.07720079
8	0xbd30761a	-0.04308138
9	0x3d05d23b	0.032671195
10	0x3d0b57b1	0.034019176
11	0x3d43a2e2	0.04776276
12	0xbce021ea	-0.027359921
13	0xba92009a	-0.0011139095
14	0x3db29fa2	0.08721854
15	0xbc833f9d	-0.016021544
16	0x3d4ea725	0.05045237
17	0xbd6e108f	-0.05812126
18	0xbd0c10fd	-0.03419589
19	0x3c1b3126	0.009472167
20	0x3ccc32fd	0.024926657
21	0xbbb53d41	-0.0055309837
22	0x3cb67538	0.022272691
23	0xbc4a573d	-0.012349901
24	0xbd880a2e	-0.066425666
25	0xbd168a3a	-0.036752917
26	0x3d4308d8	0.047615856
27	0x3d58d32f	0.052935775
28	0x3d5fcb32	0.05463714
29	0xbd9d4e71	-0.07680977
30	0xbd6e4fcd	-0.058181573
31	0xbbdd23ad	-0.0067486377
32	0xbd71db76	-0.059047185
33	0xbc6bd565	-0.014394139
34	0xbc09e971	-0.008417473
35	0xbd6fead2	-0.05857355
36	0xbd698ab8	-0.057017058
37	0x3da50363	0.080572866
38	0x3bf16afd	0.0073674903
39	0x3d4720aa	0.048615135
40	0x3bde8524	0.006790774
41	0x3d7fd676	0.062460385
42	0x3d47811e	0.04870712
43	0x3d162f7c	0.03666638
44	0xbd95731f	-0.07297348
45	0x3d908dd5	0.07058302
46	0x3cba2d1e	0.022726592
47	0xbc8129d6	-0.01576702
48	0x3d0f20a0	0.034943223
49	0xbd7075b9	-0.05870602
50	0x3d553d84	0.05206062
51	0xbdaed4d1	-0.08536685
52	0xbb2bc7db	-0.0026211652
53	0xbcf019cf	-0.029309181
54	0x3d4d2e7a	0.05009315
55	0x3d5962df	0.053072806
56	0x3da45d43	0.08025601
57	0x3a4872bd	0.0007646492
58	0xbd8a02dc	-0.06738827
59	0x3d872efb	0.06600758
60	0xbd940992	-0.07228388
61	0x3d5e636e	0.054294042
62	0xbd307822	-0.043083318
63	0xbda7007a	-0.08154388

mlp.0.weight f4 [128, 64]
0	0xbd9a6f6a	-0.07540782
1	0x3dd083aa	0.10181363
2	0xbddae62a	-0.106884316
3	0x3d91b88c	0.07115278
4	0xbd8fb4d0	-0.07016909
5	0xbafd3980	-0.0019319504
6	0xbc8ad878	-0.016948923
7	0x3d923dc0	0.07140684
8	0x3c81ca40	0.01584351
9	0x3ca7ee10	0.02049926
10	0x3d950d22	0.072778955
11	0xbddac7b6	-0.10682623
12	0x3caed118	0.021339938
13	0xbd4a9ae4	-0.04946412
14	0xbd180bd0	-0.03712064
15	0x3bf5ff20	0.00750722
16	0x3d7ebbb4	0.062190726
17	0x3cccabc8	0.024984255
18	0x3d4bcf78	0.049758404
19	0x3dba9012	0.091095105
20	0xbdf7df9a	-0.121031955
21	0xbdde49a8	-0.108538926
22	0x3c2c4d50	0.01051648
23	0x3d038bdc	0.032115802
24	0x3d473ee8	0.048643976
25	0xbd93eba8	-0.07222682
26	0xbd104198	-0.035218805
27	0xbc9b2c58	-0.018942043
28	0xbdb6a704	-0.089185745
29	0xbdeade0e	-0.11468135
30	0xbd72410c	-0.059144065
31	0xbcbd5ea8	-0.023116425
32	0xbc546960	-0.0129645765
33	0xbd75b574	-0.0599875
34	0x3dfbb2fa	0.122899964
35	0xbc95b450	-0.018274456
36	0xbde3e7ec	-0.1112822
37	0xbda31686	-0.079632804
38	0x3dd0dad6	0.1019799
39	0xbc546570	-0.012963638
40	0xbd934eda	-0.07192774
41	0xbc9a4e68	-0.018836215
42	0x3cc4b678	0.02401279
43	0x3de97842	0.113998905
44	0x3dd6f0fc	0.10495183
45	0xbcabcf50	-0.020972878
46	0x3be7b900	0.0070716143
47	0x3d341d20	0.04397309
48	0xbde6d800	-0.112716675
49	0xbcf3c168	-0.02975531
50	0xbd1cc3c8	-0.03827265
51	0xbd84db02	-0.06487085
52	0xbd932d64	-0.07186392
53	0x3cce8078	0.025207743
54	0xbd3a7a00	-0.045526505
55	0x3d22ef98	0.039779276
56	0xbd433ce8	-0.047665507
57	0x3dcc72ae	0.09982811
58	0x3d8940a4	0.06701782
59	0x3cbf9740	0.023387551
60	0x3c60af70	0.013713703
61	0xbd04e55c	-0.032445297
62	0x3d9bcbd2	0.07607235
63	0x3bc3a2e0	0.005970344
64	0x3da17a10	0.0788461
65	0xbde9db18	-0.11418742
66	0xbd8cddae	-0.068782195
67	0xbd88fa7a	-0.066883996
68	0xbd9d59ac	-0.07683119
69	0x3dbeac92	0.09310259
70	0x3cd5b7e0	0.026088655
71	0x3d26251c	0.040562734
72	0xbcf820a0	-0.030288994
73	0x3cd3dc10	0.02586177
74	0xbd58796c	-0.052850172
75	0x3cc784d0	0.024355322
76	0xbbbfd480	-0.0058541894
77	0x3d94a018	0.07257098
78	0xbc9c7da8	-0.019102886
79	0xbdf12c28	-0.11776
80	0xbdc6d23c	-0.09708068
81	0xbdd9e8de	-0.10640119
82	0xbd81b928	-0.06334144
83	0x3de12a86	0.10994439
84	0x3dab4446	0.083626315
85	0xbc942848	-0.018085614
86	0x3dcd03dc	0.10010502
87	0xbd8a0950	-0.067400575
88	0x3d8859ce	0.06657754
89	0x3cf70820	0.030155241
90	0x3d70ee14	0.0588208
91	0x3d14995c	0.036279067
92	0x3dbe3f68	0.092894375
93	0x3d9581de	0.07300161
94	0xbddc0108	-0.10742384
95	0x3cc1f828	0.0236779
96	0x3d5abdb8	0.053403586
97	0xbd0829b4	-0.033242896
98	0xbda5429c	-0.08069345
99	0x3d84ac7e	0.06478213
100	0x3d2444f4	0.04010482
101	0x3da773b8	0.081763685
102	0x3dc511de	0.096225485
103	0xbbe6c420	-0.007042423
104	0xbcf3dd90	-0.029768735
105	0x3d797fa4	0.060912743
106	0xbdf3d262	-0.11905362
107	0x3dd3f544	0.10349515
108	0x3d8ba5ec	0.068187565
109	0x3dc07056	0.093964264
110	0xbc553320	-0.013012677
111	0x3d8aa6e6	0.067701146
112	0x3dd33e3e	0.10314606
113	0xbdddf8a0	-0.10838437
114	0x3d627308	0.055285484
115	0x3d02460c	0.031805083
116	0xbdbeee58	-0.09322804
117	0x3cd7e2f8	0.026353344
118	0x3c4721b0	0.012154028
119	0x3dce01e2	0.10058953
120	0xbd8b43dc	-0.068000525
121	0x3ccc3120	0.024925768
122	0x3dea0622	0.11426951
123	0xbd539da0	-0.051663995
124	0x3dfc8280	0.123295784
125	0xbd94f068	-0.07272416
126	0xbcb423f0	-0.021989793
127	0x3d0ecee4	0.034865275
128	0xbd231c08	-0.039821655
129	0x3ce0da50	0.02744785
130	0x3d2d9718	0.042380422
131	0xbd8783ac	-0.06616911
132	0xbdb0b842	-0.086288944
133	0xbba122a0	-0.0049174577
134	0xbcb42bf8	-0.021993622
135	0x3d46ce8c	0.048536822
136	0x3d4e30b8	0.05033943
137	0xbd7a14b0	-0.061054885
138	0xbdcdfc32	-0.10057868
139	0x3ad3f480	0.0016170889
140	0xbda84ce4	-0.08217791
141	0x3df6870e	0.120374784
142	0xbcd76c50	-0.026296765
143	0x3d06e380	0.032931805
144	0x3c9bc878	0.01901649
145	0xbd7de450	-0.061985314
146	0x3d2c7550	0.042104065
147	0x3dde2554	0.108469635
148	0xbdb0bb58	-0.08629483
149	0xbd213e64	-0.03936614
150	0x3d50b67c	0.05095528
151	0xbc7c5620	-0.015401393
152	0x3a271e00	0.0006375015
153	0xbda07fbe	-0.07836865
154	0x3dfb6f64	0.122771055
155	0x3c98e998	0.018666074
156	0xbdba279e	-0.09089588
157	0xbd99de8a	-0.07513149
158	0x3d27e120	0.04098618
159	0xbd06b834	-0.032890514
160	0xbd955ef0	-0.072934985
161	0xbc37a930	-0.011209771
162	0xbdde3982	-0.108508125
163	0xbddcb77e	-0.10777186
164	0xbdefb552	-0.11704506
165	0x3d593658	0.053030342
166	0xbdc2f4d8	-0.095193565
167	0x3db2c7a8	0.08729488
168	0xbdf9d1ec	-0.121982425
169	0xbd7f2aec	-0.062296793
170	0x3c711950	0.014715508
171	0x3d55d208	0.052202255
172	0xbdd23cc4	-0.102654964
173	0x3d798834	0.06092091
174	0xbdc40aaa	-0.095723465
175	0xbdeeeee6	-0.1166666
176	0x3d99d828	0.07511932
177	0x3d35921c	0.044328794
178	0x3dd362e2	0.10321595
179	0xbdadbc0a	-0.08483131
180	0xbd3daa50	-0.046305
181	0xbca4b9a8	-0.020108059
182	0x3cfea4b0	0.031084388
183	0x3d56b6a0	0.05242026
184	0xbd645c14	-0.055751875
185	0xbcd15ee8	-0.02555795
186	0xbc2850c0	-0.010273159
187	0x3d9064c6	0.07050471
188	0x3d7a5068	0.061111838
189	0xbc0f7fe0	-0.008758515
190	0xbd8139ba	-0.063098386
191	0x3cd60a80	0.026128054
192	0xbd4c962c	-0.049947903
193	0xbd97dae6	-0.074147984
194	0x3d372f00	0.044722557
195	0x3df2766e	0.11838995
196	0x3dda4e92	0.10659517
197	0x3ccb6d60	0.024832428
198	0x3dc6a23c	0.096989125
199	0x3dda8bd0	0.10671198
200	0xbdc78e14	-0.09743896
201	0xbdd355e2	-0.10319115
202	0x3c891de0	0.016737878
203	0x3da87dc6	0.082271144
204	0xbd4c46bc	-0.049872145
205	0x3dda9d84	0.10674575
206	0x3c712fc0	0.014720857
207	0xbc671fd0	-0.014106706
208	0x3d91114c	0.07083377
209	0xbda37aba	-0.079823926
210	0xb8afd000	-8.383393e-05
211	0x3dd16e6e	0.10226141
212	0xbaaa3900	-0.0012986958
213	0xbd198498	-0.037479967
214	0x3d6245ac	0.055242226
215	0xbc25af00	-0.010112524
216	0xbd805ebe	-0.06268071
217	0x3b849680	0.0040462613
218	0xbd27ce2c	-0.040968105
219	0xbdecf378	-0.115698755
220	0x3db1c322	0.08679797
221	0xbddd201e	-0.107971415
222	0xbd4b47b8	-0.049628943
223	0xbde28d86	-0.1106215
224	0x3cd0e878	0.025501475
225	0xbc61eb60	-0.013789028
226	0xbd91c998	-0.07118529
227	0xbd451de0	-0.048124194
228	0x3dd53d14	0.1041204
229	0x3da21e1c	0.07915899
230	0x3de06380	0.10956478
231	0x3d92ca08	0.07167441
232	0xbd84df9e	-0.06487964
233	0x3d8cf53e	0.06882714
234	0x3da8615a	0.08221693
235	0xbd14f78c	-0.03636889
236	0xbd834170	-0.064089656
237	0x3d5223bc	0.05130361
238	0x3d9a6940	0.07539606
239	0x3d8784ac	0.06617102
240	0xbd95f3cc	-0.07321891
241	0x3d01337c	0.03154324
242	0xbdb598aa	-0.08867009
243	0xbcda1b70	-0.026624411
244	0x3d013598	0.03154525
245	0x3ddd86d8	0.10816735
246	0xbdf64190	-0.12024224
247	0xbca6d0c8	-0.020363227
248	0x3c28dd10	0.010306612
249	0xbd247398	-0.0401493
250	0x3d0ad160	0.03389108
251	0x3c94f6f0	0.018184155
252	0x3dc2bd6c	0.095087856
253	0x3d98ea3a	0.0746655
254	0x3dc9ff7a	0.098631814
255	0xbdee21d8	-0.11627549

mlp.0.bias f4 [128]
0	0xbd4ca8f8	-0.04996583
1	0x3cd456c8	0.025920287
2	0xbd3a5250	-0.045488656
3	0x3ca51d60	0.020155609
4	0x3d42ec84	0.04758884
5	0xbde5d7bc	-0.11222789
6	0x3d5c6060	0.053802848
7	0x3d71b138	0.0590069
8	0xbd24253c	-0.040074572
9	0xbd6a076c	-0.057135984
10	0x3d92b51a	0.07163449
11	0xbdb4af06	-0.088224456
12	0x3df764fc	0.12079808
13	0xbde15daa	-0.11004193
14	0xbdf14824	-0.11781338
15	0x3c7f7230	0.015591189
16	0x3d9386f4	0.07203475
17	0x3d91bb02	0.07115747
18	0xbbfb2920	-0.0076648146
19	0xbd30b23c	-0.043138728
20	0x3c86ba88	0.016446367
21	0xbd958e8a	-0.07302578
22	0x3dbf00b6	0.093263075
23	0x3dacd402	0.08438875
24	0x3b406ec0	0.0029362887
25	0xbdf50cc4	-0.119653255
26	0xbddbc1a2	-0.10730292
27	0x3d5a72cc	0.053332135
28	0xbdcc145c	-0.09964821
29	0xbd745c30	-0.05965823
30	0x3dc93176	0.09823887
31	0xbc992578	-0.018694624
32	0xbd2ad60c	-0.041708037
33	0x3c2a1ff0	0.010383591
34	0x3d8ea3a2	0.06964804
35	0x3dfbdf24	0.1229842
36	0x3d151a3c	0.036401972
37	0xbd576004	-0.052581802
38	0x3de0601a	0.1095583
39	0x3d50767c	0.050894246
40	0xbd65a0b8	-0.056061476
41	0xbd0839e8	-0.03325835
42	0xbd404958	-0.046944946
43	0xbd389aa8	-0.045069367
44	0x3d6eb198	0.058274835
45	0x3daffeee	0.08593546
46	0xbdca165c	-0.09867546
47	0xbdf099e4	-0.11748102
48	0xbdbeae16	-0.09310548
49	0xbdb8bfb6	-0.09020941
50	0xbc403720	-0.011731893
51	0x3da1cc54	0.079003006
52	0xbb833fa0	-0.0040053874
53	0xbd8e4852	-0.06947388
54	0x3daa6780	0.08320522
55	0x3dfbe55e	0.12299608
56	0xbc9956b0	-0.018718094
57	0xbdddc420	-0.108284235
58	0x3dd6d916	0.104906246
59	0xbd64444c	-0.055729195
60	0x3dbb7770	0.0915364
61	0xbdea4854	-0.11439577
62	0x3bc76640	0.006085187
63	0xbc7321c0	-0.01483959
64	0x3dca17c8	0.09867817
65	0x3d234560	0.039861083
66	0xbc9e71f8	-0.019341454
67	0xbd5161e8	-0.05111876
68	0x3df7eff0	0.12106311
69	0x3da5bdc2	0.08092834
70	0x3b5e3fc0	0.003391251
71	0xbd9facce	-0.07796632
72	0xbda58b7c	-0.08083245
73	0xbdc1e5a4	-0.094676286
74	0x3d70b10c	0.058762595
75	0x3da20640	0.07911348
76	0x3a0b4600	0.000531286
77	0xbd38ba64	-0.04509963
78	0x3df5baa8	0.119984925
79	0xbde39724	-0.11112812
80	0xbddbcb94	-0.10732189
81	0xbcc13ae0	-0.023587644
82	0x3d9e65ce	0.077342615
83	0x3ce7bae8	0.028287366
84	0x3d882efe	0.06649588
85	0xbd840252	-0.06445755
86	0x3c436fa0	0.011928469
87	0x3d98bcb6	0.07457869
88	0xbdff3ad8	-0.124623954
89	0xbdae7ca0	-0.08519864
90	0x3ddf15a2	0.10892798
91	0xbd669314	-0.05629261
92	0x3cae0ee0	0.021247327
93	0xbd1c8518	-0.038212866
94	0xbd931930	-0.071825385
95	0xbd94a3e0	-0.07257819
96	0x3d8d1184	0.068881065
97	0x3d8ff37c	0.07028863
98	0xbdeae54a	-0.11469515
99	0x3ccc9e88	0.024977937
100	0xbdadf494	-0.08493915
101	0xbd356028	-0.044281155
102	0x3d3d5d40	0.04623151
103	0xbc31c840	-0.010850966
104	0x3dfcc268	0.123417675
105	0x3d07b3a8	0.033130318
106	0xbdaca700	-0.0843029
107	0x3df081d2	0.11743511
108	0xbdc4499c	-0.095843524
109	0x3d1665bc	0.036718115
110	0x3c940508	0.018068805
111	0x3d6f0bf4	0.05836101
112	0xbcdd9d00	-0.027052402
113	0x3dcd20bc	0.10016009
114	0x3b7450c0	0.0037279576
115	0x3d483294	0.04887636
116	0xbce7be88	-0.028289095
117	0xbc757750	-0.01498206
118	0xbdb8f544	-0.09031156
119	0xbaa37e80	-0.0012473613
120	0x3d9e9894	0.07743946
121	0xb9e57600	-0.000437662
122	0xbb186440	-0.0023253113
123	0x3df195ac	0.11796126
124	0x3dc704a6	0.097176835
125	0x3d40f5cc	0.04710941
126	0x3c5380c0	0.012909114
127	0x3cd83dc0	0.026396632

action_head.weight f4 [3, 128]
0	0x3cc4d44c	0.024027012
1	0xbda4a7e1	-0.08039833
2	0xbd8006dd	-0.06251309
3	0xbd41b670	-0.047293127
4	0x3d06510e	0.032792144
5	0xbcbce664	-0.023059078
6	0x3d691bb4	0.056911185
7	0xbda25892	-0.0792705
8	0xbd879c24	-0.06621578
9	0xbda17a56	-0.07884662
10	0xbd068433	-0.03284092
11	0xbd684fe6	-0.056716822
12	0x3da893e6	0.082313344
13	0x3dabf2b5	0.08395902
14	0x3cab475c	0.02090805
15	0xbd03ffac	-0.03222625
16	0xbd8769be	-0.066119656
17	0x3d51160d	0.05104642
18	0xbc130455	-0.008973201
19	0xbd078840	-0.033088923
20	0xbd9df35d	-0.077124335
21	0x3d19065e	0.037359588
22	0xbceb6eaa	-0.028739292
23	0xbd82ed22	-0.06392886
24	0xbd8b20ec	-0.06793389
25	0xbd1a70bd	-0.03770517
26	0x3d75f9bc	0.06005262
27	0xbb409f27	-0.0029391737
28	0xbbb9c7d3	-0.005669573
29	0x3d78de9e	0.06075918
30	0xbc883e49	-0.016631262
31	0x3d574f8c	0.052566096
32	0xbd461514	-0.048359945
33	0xbd801adf	-0.06255125
34	0xbdaeff9b	-0.085448466
35	0x3c96288e	0.018329885
36	0xbd82003f	-0.06347703
37	0xbdab4940	-0.08363581
38	0x3ce2eac4	0.027699836
39	0xbd9e1480	-0.07718754
40	0xbd826ba3	-0.06368186
41	0xbda83a29	-0.08214218
42	0x3d11ebd8	0.03562531
43	0x3d7e9917	0.062157717
44	0xbd4854ad	-0.048908878
45	0x3d436fc5	0.047714014
46	0x3ce3f50f	0.027826814
47	0xba8f1c43	-0.0010918457
48	0xbc57f053	-0.013179856
49	0x3cc48a9a	0.023991872
50	0x3cb442b2	0.022004459
51	0x3d90e87c	0.07075593
52	0xbd073834	-0.033012584
53	0xbdb1042b	-0.08643373
54	0x3c86ad33	0.01644001
55	0x3d8630f1	0.065523036
56	0x3d3fbfd1	0.04681379
57	0x3d05a921	0.032631997
58	0xbd665f58	-0.05624327
59	0x3bed9e8a	0.0072515653
60	0x3ca96928	0.020680025
61	0x3d044cf2	0.032299943
62	0x3d78260b	0.060583156
63	0x3d92de23	0.071712755
64	0xbd040a28	-0.03223625
65	0xbc9268e1	-0.017872276
66	0x3d852fd2	0.065032616
67	0x3da9aea7	0.082852654
68	0xbd63c39b	-0.055606466
69	0x3d99c667	0.07508545
70	0xbd0e3134	-0.034714893
71	0x3d844922	0.064592615
72	0x3d5a87ab	0.05335204
73	0x3d599e2e	0.053129368
74	0xbd91cc98	-0.07119101
75	0xbd66c01c	-0.056335554
76	0x3d5e44ed	0.05426495
77	0xbca0cc0b	-0.019628545
78	0x3d39ed5b	0.045392375
79	0x3db0d467	0.086342625
80	0xbc8aa813	-0.016925847
81	0x3cbcb052	0.023033295
82	0xbc663340	-0.014050305
83	0xbc945fc4	-0.01811207
84	0x3db46d64	0.08809927
85	0x3cc41396	0.02393512
86	0xbcc6c13d	-0.024262065
87	0x3d0d83a7	0.03454938
88	0xbd845a78	-0.06462568
89	0x3d48bccf	0.049008187
90	0x3d6ee076	0.05831953
91	0x3db4797d	0.088122346
92	0x3c5fb7fb	0.013654704
93	0xbcbe1b8d	-0.023206497
94	0x3b9c5983	0.004771413
95	0x3cbe1b05	0.023206243
96	0xbd79be54	-0.060972527
97	0x3ce9a22f	0.028519718
98	0x3c450f62	0.012027593
99	0x3d8bbbcd	0.068229295
100	0x3c8c2f31	0.017112346
101	0x3d238fb1	0.039931957
102	0x3d0f80f0	0.035035074
103	0xbd6a1f4c	-0.057158753
104	0xbda8f91c	-0.08250639
105	0xbd15bdf6	-0.036558114
106	0x3dae39d6	0.08507125
107	0xbd5a2348	-0.053256303
108	0x3cec25a1	0.028826537
109	0x3cf2c1b1	0.029633375
110	0xbc30282d	-0.010751766
111	0xbca048a8	-0.019565895
112	0x3b65a28f	0.003503952
113	0xbd2f0d2b	-0.042737167
114	0x3ace18c6	0.0015723936
115	0xbc9c9cbc	-0.019117706
116	0xbd9d3c43	-0.0767751
117	0xbccf34d4	-0.025293745
118	0x3ce80092	0.028320584
119	0xbd954c2c	-0.07289919
120	0xbcfc1236	-0.030770402
121	0xbc9643ab	-0.018342813
122	0xbd95ff87	-0.073241286
123	0x3d98063a	0.074230626
124	0xbc496979	-0.012293213
125	0xbd93990a	-0.07206924
126	0xbd26633a	-0.040621974
127	0xbb378d5e	-0.0028007845
128	0x3d8826b4	0.06648007
129	0xbda752c1	-0.08170081
130	0xbd6b6083	-0.057465088
131	0xbc974e67	-0.018470002
132	0x3a708626	0.0009175263
133	0x3d9fd0f9	0.0780353
134	0x3bf1c9eb	0.007378807
135	0xbda98682	-0.082776085
136	0xbdafed56	-0.0859019
137	0xbc8075a3	-0.015681094
138	0x3d9087fb	0.07057186
139	0x3c9966fd	0.018725866
140	0xbcec095e	-0.02881306
141	0x3d0e8505	0.034794826
142	0x3d817e12	0.06322874
143	0x3d89649a	0.06708641
144	0xbd182f0b	-0.03715424
145	0x3d361e8b	0.04446272
146	0xbdab13eb	-0.083534084
147	0x3b45d2cf	0.0030185466
148	0x3d2f82a6	0.042849205
149	0xbcab6c10	-0.020925552
150	0xbcef29a3	-0.029194659
151	0x3dad6ae4	0.084676534
152	0x3d753e03	0.059873592
153	0xbd9d8221	-0.07690836
154	0x3d338560	0.04382837
155	0xbc378c2c	-0.011202853
156	0xbcc348fb	-0.02383851
157	0x3d3e321d	0.04643451
158	0xbd5beaed	-0.05369084
159	0xbd8d879b	-0.0691063
160	0x3cbda4fa	0.023149956
161	0x3d0cfaee	0.034418993
162	0x3d3c7730	0.046012104
163	0xbd63f8cb	-0.05565719
164	0xbd8e0fc1	-0.069365986
165	0xbda4bb6b	-0.0804356
166	0xbc776a62	-0.015101047
167	0x3d59c83b	0.05316947
168	0xbd5baf0a	-0.053633727
169	0xbd1f1f40	-0.03884816
170	0x3cd83e0b	0.026396772
171	0x3d865340	0.065588474
172	0x3d849e66	0.064755246
173	0x3d8701cb	0.06592139
174	0xbc87d6d3	-0.016581928
175	0x3c84ff69	0.01623507
176	0xbcf4dbe9	-0.029890018
177	0x3ce2672d	0.027637089
178	0x3cc138d6	0.023586672
179	0xbd19c218	-0.037538618
180	0x3cf97f79	0.030456292
181	0xbd8945d9	-0.067027755
182	0x3d8057bd	0.06266735
183	0xbb092ded	-0.0020931915
184	0xbc971fab	-0.018447718
185	0xbdb2d4c6	-0.087319896
186	0x3da3d53a	0.07999654
187	0x3d96f668	0.07371217
188	0xbcd5680b	-0.026050588
189	0xbc8a44dc	-0.016878538
190	0x3c7032cd	0.014660549
191	0xbc16a45e	-0.009194462
192	0xbc8063a0	-0.015672505
193	0x3d3bcca7	0.04584947
194	0xbce9b717	-0.028529687
195	0x3d3fc9f0	0.046823442
196	0x3d558eca	0.052138127
197	0x3d68c443	0.056827795
198	0xbd89b9d4	-0.06724897
199	0xbc8283db	-0.015932014
200	0x3d1b54d8	0.03792271
201	0xbba9aa09	-0.0051777405
202	0xbd0d6afe	-0.034525864
203	0xbd991293	-0.07474246
204	0xbca12c52	-0.019674454
205	0xbda32aa3	-0.07967117
206	0x3d209e34	0.039213374
207	0xbc2d53d5	-0.010579069
208	0xbd4f72d3	-0.050646614
209	0xbd237d3e	-0.039914362
210	0xbd20b7d0	-0.039237797
211	0xbcc888f2	-0.024479363
212	0xbd9fbfb9	-0.0780024
213	0x3d198164	0.037476912
214	0x3d0078e5	0.031365294
215	0xbdb196b9	-0.08671326
216	0xbd2486e7	-0.040167715
217	0xbd372f63	-0.044722926
218	0xbbc6ebe3	-0.0060706004
219	0x3ca5b24c	0.02022662
220	0xbd4ff916	-0.050774656
221	0xbd876c60	-0.06612468
222	0x3daf08b7	0.08546584
223	0xbc1b07b1	-0.009462283
224	0x3d2adc7f	0.041714188
225	0x3d14b638	0.03630659
226	0xbcb6d924	-0.022320338
227	0x3d3927b0	0.045203865
228	0xbd8585df	-0.065196745
229	0xbdaa6377	-0.08319753
230	0x3d94b4ce	0.07261048
231	0x3d354b62	0.044261344
232	0xbd92524c	-0.07144603
233	0xbda250b0	-0.07925546
234	0xbc836aba	-0.016042102
235	0x3d9ac13d	0.075563885
236	0xbd8aff30	-0.067869544
237	0x3ce9455b	0.028475454
238	0xbdaf210b	-0.08551224
239	0xbc12deae	-0.008964224
240	0x3aac75fb	0.001315772
241	0xbcf9468d	-0.030429149
242	0x3cfe0655	0.031008879
243	0x3d2f494b	0.042794507
244	0xbd380b63	-0.044932734
245	0x3c1b4c81	0.009478689
246	0xbd5a1a17	-0.053247537
247	0xbd71286e	-0.058876447
248	0xbdb26dca	-0.08712347
249	0xbd088cd4	-0.03333743
250	0xbc83d75b	-0.0160939
251	0xbd27e59e	-0.040990464
252	0xbb6a352d	-0.0035737262
253	0x3d6493bd	0.055804957
254	0x3d5112a0	0.051043153
255	0xbd24f1b8	-0.040269583

action_head.bias f4 [3]
0	0xbc8ad204	-0.016945846
1	0x3daf2516	0.085519955
2	0x3d26a309	0.040682826

term_head.weight f4 [1, 128]
0	0x3c1ac605	0.009446626
1	0xbcdbabfb	-0.026815405
2	0x3d62bced	0.055355955
3	0x3da3b168	0.07992822
4	0xbc52e033	-0.012870836
5	0x3cd5da8c	0.026105188
6	0x3d53441a	0.05157862
7	0xbd1546d6	-0.036444508
8	0x3d2610da	0.040543415
9	0xbd2ab283	-0.04167415
10	0xbcb4c560	-0.022066772
11	0xbd9341bb	-0.071902715
12	0xbc5eaba2	-0.013590725
13	0x3da6be9b	0.08141824
14	0xbd9c2693	-0.07624545
15	0xbd08c062	-0.033386596
16	0xbc8bf73e	-0.017085668
17	0x3ae68ff8	0.0017590513
18	0x3d9cda40	0.076588154
19	0xbd19d8dd	-0.037560333
20	0x3da1957b	0.07889839
21	0xbd5f6ad1	-0.054545227
22	0xbd2f92e3	-0.04286469
23	0xbd71cea8	-0.059034973
24	0x3d2d005a	0.042236663
25	0x3c16d1c1	0.009205283
26	0x3d3b39af	0.04570931
27	0x3d6f7b79	0.058467362
28	0xbdaa96c8	-0.083295405
29	0x3db4d919	0.088304706
30	0x3b717007	0.0036840455
31	0xbbd74ae8	-0.006570209
32	0xbcba7807	-0.022762312
33	0x3d8be927	0.0683158
34	0xbba01abd	-0.004886
35	0x3d2eb407	0.042652156
36	0x3c12f2e0	0.008969039
37	0xbd7d2943	-0.06180693
38	0x3bdbdfff	0.006710052
39	0xbda795f8	-0.08182901
40	0x3d04509a	0.03230343
41	0xbd1557a9	-0.036460552
42	0xbb2e2d18	-0.002657717
43	0x3c928b49	0.017888682
44	0x3ca98ded	0.020697558
45	0xbd26c7ba	-0.040717818
46	0xbcd8675d	-0.026416475
47	0x3bf67120	0.00752081
48	0x3d164f61	0.036696795
49	0x3bdf0b0c	0.006806737
50	0xbd8dc5a4	-0.069224626
51	0xbd7747bf	-0.060371157
52	0x3c94ade1	0.018149318
53	0xbd3772bd	-0.044787157
54	0x3c1eb042	0.009685578
55	0xbda2d24f	-0.079502694
56	0x3cc85a9c	0.024457268
57	0xbdadc034	-0.084839255
58	0x3c64d048	0.013965674
59	0xbd126a0a	-0.035745658
60	0xbd6b314a	-0.057420053
61	0x3d4b8d76	0.049695455
62	0x3b34a906	0.0027566566
63	0x3c0c1e33	0.008552122
64	0x3ccf2ebb	0.025290838
65	0xbd97ec05	-0.07418064
66	0xbd9b0e9b	-0.07571145
67	0xbd4a5965	-0.04940166
68	0xbc1d3d1d	-0.00959709
69	0xbc36d4d0	-0.011159137
70	0xbda63f1f	-0.08117508
71	0x3b7b0dff	0.0038307903
72	0xbd92e545	-0.07172636
73	0x3d69278c	0.05692248
74	0xbd6e7db8	-0.058225363
75	0xbd902511	-0.0703832
76	0x3db1c69d	0.086804606
77	0x3d9ab7ab	0.07554563
78	0xbd9c5278	-0.07632917
79	0xbd3e3979	-0.04644153
80	0xbdad3535	-0.08457414
81	0x3da7f10b	0.08200272
82	0xbda1d74f	-0.07902395
83	0xbcc8792b	-0.02447184
84	0xbcff0a1b	-0.031132748
85	0x3c8ccad3	0.017186558
86	0x3d935337	0.07193606
87	0xbd18054a	-0.03711442
88	0xbd80645b	-0.06269141
89	0x3d2afb2e	0.04174345
90	0xbd7ef6df	-0.062247153
91	0xbc29329f	-0.01032701
92	0xbceff466	-0.029291343
93	0x3da367d1	0.07978786
94	0xbcc96864	-0.02458591
95	0xbd8ee3f7	-0.069770746
96	0xbda7bd98	-0.08190459
97	0xbd95a052	-0.07305969
98	0xbcf0e55e	-0.029406246
99	0x3d934d12	0.07192434
100	0x3d8403b4	0.06446019
101	0xbd1fe66f	-0.039038118
102	0x3c3e4fbf	0.011615693
103	0x3cf223cf	0.02955809
104	0xbd438806	-0.047737144
105	0x3ca3629a	0.019944478
106	0xbcd8e009	-0.026474016
107	0xbd13a883	-0.036049377
108	0x3d9607fb	0.07325741
109	0xbd8bdfa9	-0.06829769
110	0xbd724ef1	-0.059157316
111	0xbd0f4d24	-0.034985676
112	0xbd4d104d	-0.050064374
113	0xbd1ef74c	-0.03881006
114	0xbd621604	-0.055196777
115	0xbd9fe090	-0.07806504
116	0x3d0bc9bc	0.034127936
117	0x3d571881	0.052513603
118	0xbca65dd0	-0.020308405
119	0x3d27d0de	0.040970676
120	0x3cc73e10	0.024321586
121	0xbda09bbd	-0.07842205
122	0xbd845983	-0.064623855
123	0xbda62b8e	-0.08113776
124	0x3d975b01	0.073904045
125	0xbd685c60	-0.05672872
126	0xbc88ebb9	-0.016713964
127	0xba88e491	-0.0010444095

conv.0.weight f4 [128, 520, 1, 1]
0	0x3c856013	0.016281163
1	0x3ca76949	0.020435946
2	0xbbd0a05c	-0.0063667726
3	0x3cc22c05	0.02370263
4	0x3d0595da	0.032613613
5	0x3c27b306	0.010235554
6	0xba77607f	-0.0009436681
7	0xbc4979c9	-0.012297102
8	0xbc1a5f1d	-0.009422091
9	0xbc621224	-0.01379827
10	0x3c83ca64	0.016087718
11	0xbd035e0c	-0.032072112
12	0xbd271e95	-0.04080065
13	0xbc389337	-0.0112655675
14	0xbd1e397b	-0.038629036
15	0xbcf0d610	-0.029398948
16	0xbcfc4348	-0.030793801
17	0x3b71a8c7	0.003687428
18	0x3d0f7463	0.035023104
19	0xbcc33dd0	-0.023833185
20	0x3cc45a0f	0.023968725
21	0xbd16adb1	-0.03678674
22	0x3d059a64	0.03261794
23	0xbcccf01e	-0.02501684
24	0x3d2e932e	0.04262083
25	0xbc908e90	-0.017646104
26	0xbcbeb8ff	-0.023281572
27	0x3d04fd88	0.03246835
28	0x3ca1edad	0.019766653
29	0x3c966f39	0.018363582
30	0x3d30c57d	0.04315709
31	0xbd2c2cb7	-0.04203483
32	0xbcb65343	-0.0222565
33	0xbd1d0d45	-0.038342733
34	0x3cc5106e	0.024055686
35	0x3d23963a	0.03993819
36	0x3c04088b	0.008058677
37	0xb98eae4f	-0.0002721422
38	0x3cc89efe	0.024489876
39	0x3d046b55	0.032328922
40	0x3cbc7ca9	0.023008661
41	0xbae1bc79	-0.0017222307
42	0xbd0031c8	-0.031297475
43	0x3c22491e	0.009905128
44	0xbc66c29d	-0.014084485
45	0x3cbab7dc	0.02279275
46	0xbb48fa97	-0.0030666941
47	0x3c4bdd8e	0.0124429595
48	0xbcc55e45	-0.024092803
49	0xbc2978a9	-0.010343709
50	0x3ce81316	0.028329413
51	0x3b239c2b	0.002496491
52	0x3d1197d6	0.035545193
53	0xbd330312	-0.0437041
54	0xbc851635	-0.01624594
55	0xbce69d81	-0.028151276
56	0x3c271c74	0.010199655
57	0xbd082e55	-0.03324731
58	0x3c5922d7	0.013252935
59	0x3cd69163	0.026192373
60	0xbcfe92ef	-0.031075923
61	0x3d01dd52	0.031705208
62	0x3c91e137	0.017807586
63	0xbcb33b52	-0.021878872
64	0xbc1b990f	-0.009496941
65	0xbd12f27b	-0.03587578
66	0xbcb916ea	-0.022593934
67	0x3a6d9efd	0.00090645236
68	0xbcd0c226	-0.025483202
69	0xbc8e3076	-0.017357092
70	0xbd1b07bc	-0.037849173
71	0x3d14752a	0.03624455
72	0x3ce7c9be	0.02829444
73	0x3cb784ad	0.022402132
74	0xbd2c0621	-0.041998032
75	0x3d14c066	0.036316298
76	0xbcef2227	-0.02919109
77	0xbd0d0f54	-0.034438446
78	0x3d0b5e2e	0.034025364
79	0x3c5815a0	0.01318875
80	0xba848038	-0.0010109013
81	0xbd0a31f0	-0.03373903
82	0xbd25d9ec	-0.04049103
83	0xbca50006	-0.020141613
84	0x3cac0464	0.020998187
85	0xbd221012	-0.039566107
86	0xbd2d1f57	-0.042266216
87	0xbbf9a4fb	-0.007618544
88	0x3cfd5aff	0.03092718
89	0xbc22aecb	-0.009929369
90	0xbd29f9c5	-0.041497964
91	0xbc360472	-0.011109458
92	0xbb22bc41	-0.0024831446
93	0xbb695855	-0.0035605629
94	0x3c8a2161	0.01686162
95	0x3cc2b103	0.023766046
96	0xbd06ffbf	-0.032958742
97	0xbcf8913e	-0.030342694
98	0xbc8c9731	-0.017161937
99	0xbd2aa962	-0.041665442
100	0xbcf7031a	-0.030152846
101	0xbca1970e	-0.019725349
102	0x3b9453e0	0.0045266002
103	0xbc479a6e	-0.012182815
104	0xbcdc0d78	-0.026861891
105	0x3d0d2925	0.034463067
106	0xbc7dcb24	-0.015490327
107	0x3cc89cbf	0.024488805
108	0x3c87fdc9	0.016600506
109	0xbc4b2ec2	-0.012401285
110	0x3d2ada7a	0.04171226
111	0xbce8074d	-0.028323794
112	0x3cbfaffc	0.023399346
113	0xbcf2c811	-0.029636415
114	0x3d085e37	0.033292975
115	0xbb0cf0f0	-0.0021505915
116	0xbc9ab417	-0.018884702
117	0x3bd11c06	0.0063815145
118	0x3cf3c662	0.029757682
119	0xbc8b93f2	-0.01703832
120	0xbd11030b	-0.035403293
121	0x3ba70df6	0.0050981
122	0x3b43d9e6	0.0029884516
123	0x3c7a49de	0.0152764
124	0xbcc4a8f8	-0.024006352
125	0x3c73c50b	0.014878522
126	0xbbfa49de	-0.0076382
127	0x3cfd3502	0.030909065
128	0x3cd5d101	0.026100637
129	0xbba2fc8b	-0.004973953
130	0xbcacc4ed	-0.021089995
131	0x3ce4ca2f	0.02792844
132	0x3b369cdb	0.002786449
133	0x3c7d8c6e	0.015475376
134	0x3cd65b3a	0.026166547
135	0x3cfbd7fc	0.030742638
136	0x3d116b9f	0.035503026
137	0xbcbb91e5	-0.022896716
138	0x3c77ca9f	0.015123992
139	0xbbaa07bb	-0.00518891
140	0xbccb2336	-0.024797063
141	0x3c1f0e78	0.009708039
142	0x3c159b4d	0.009131265
143	0x3d210d42	0.039319284
144	0xbca4aa0f	-0.020100622
145	0xbd263eb6	-0.04058715
146	0x3ccc954f	0.02497354
147	0x3baa7073	0.0052013933
148	0xbc98bbc5	-0.018644223
149	0x3b97bb52	0.0046304846
150	0x3cfc1873	0.030773377
151	0x3d3195e0	0.043355823
152	0xbc7178de	-0.01473829
153	0xb9d0f6ed	-0.00039856826
154	0xbd18d2dd	-0.03731047
155	0xbcaccf25	-0.021094868
156	0x3c2afa26	0.010435617
157	0x3adb5869	0.0016734722
158	0xbc7a6ebf	-0.015285193
159	0xbd302070	-0.042999685
160	0xbc3a3764	-0.011365745
161	0xbce7396f	-0.028225629
162	0xbd125da8	-0.03573385
163	0x3d0a4dd8	0.033765644
164	0xbb899609	-0.004198794
165	0xbd32a4aa	-0.043614067
166	0x3d2f553b	0.04280589
167	0x3c8e13e1	0.017343463
168	0x3cd498dc	0.025951795
169	0x3c901e5d	0.017592603
170	0xbd0276be	-0.031851523
171	0xbd0013a7	-0.031268742
172	0x3b431204	0.0029765377
173	0x3baca552	0.005268731
174	0x3c079e35	0.008277466
175	0x3bfabaf6	0.007651682
176	0xbbd22c0b	-0.0064139417
177	0xbd1f7fee	-0.038940363
178	0xbccbe291	-0.024888309
179	0xbd26f3d2	-0.04075987
180	0x3cd0a6b8	0.025470123
181	0x3d295360	0.04133928
182	0x3cc23e02	0.023711208
183	0x3cfcc41f	0.030855237
184	0x3cf454c8	0.029825583
185	0xbcca7ffb	-0.024719229
186	0xbc2c6729	-0.010522642
187	0x3d07f3e4	0.033191577
188	0xbc003cd4	-0.007827003
189	0x3cab929d	0.020943934
190	0xbcfd6997	-0.030934138
191	0xbcb3f9ad	-0.02196964
192	0xbbdd6bff	-0.006757259
193	0x3b776cb0	0.0037753992
194	0x3d2ff164	0.042954817
195	0x3ce80269	0.028321462
196	0x3bc27608	0.0059344806
197	0xbc988962	-0.018620197
198	0xbba1473e	-0.004921823
199	0x3c3328fb	0.0109350635
200	0x3d1df671	0.038565103
201	0xbc50067a	-0.012696857
202	0x3ce52d83	0.027975803
203	0x3c4358f3	0.011923063
204	0xbcebb115	-0.028770963
205	0xbb770d9e	-0.0037697325
206	0x3d19864e	0.0374816
207	0x3bd06a4a	0.006360327
208	0xbd1a1fdd	-0.037628043
209	0xbc029355	-0.007969697
210	0xbb45a15a	-0.0030155987
211	0x3d2251a0	0.039628625
212	0x3cca810e	0.024719741
213	0x3cb3d2b1	0.021951051
214	0xbc7e96d6	-0.015538892
215	0xbc8865c0	-0.01665008
216	0xbc49a985	-0.012308483
217	0xbd10048c	-0.035160586
218	0x3c9c46b4	0.019076683
219	0x3ce2cdf4	0.027686097
220	0xbcc9f58a	-0.024653215
221	0x3d25b667	0.040457156
222	0xbca9a2d9	-0.020707535
223	0x3d06c472	0.03290219
224	0xbd1d9cdc	-0.03847967
225	0xbd0c0743	-0.034186613
226	0xbb3a710f	-0.0028448736
227	0x3d1757da	0.036949016
228	0x3ae0f642	0.0017163234
229	0xbbd20cbb	-0.006410209
230	0xbce034e6	-0.027368974
231	0xbc9fb2e0	-0.019494474
232	0x3ac91933	0.0015342593
233	0x3c84560e	0.016154315
234	0x3c99d073	0.018776154
235	0x3ca85a5e	0.020550903
236	0x3cb15883	0.021648651
237	0xbc7e1734	-0.015508462
238	0xbc873351	-0.016503962
239	0x3c7aaac2	0.015299501
240	0x3a77a2ce	0.0009446562
241	0x3caff1dc	0.021477632
242	0x3c26d785	0.01018322
243	0x3d2d80e6	0.042359255
244	0x3cd52b0d	0.026021505
245	0x3cc3dfea	0.023910481
246	0x3d08c47c	0.033390507
247	0xbca4102e	-0.020027246
248	0xbb22dc17	-0.0024850422
249	0x3ca7ddd3	0.020491516
250	0x3cdbf8de	0.026852068
251	0x3d049b0d	0.03237443
252	0x3d18d84b	0.037315648
253	0xbc9bf728	-0.019038752
254	0xbd1cc711	-0.038275782
255	0x3d1fdaeb	0.039027136

conv.0.bias f4 [128]
0	0x3ac323d2	0.0014887995
1	0xbb5f3954	-0.003406127
2	0x3cf29b78	0.029615149
3	0xbcac125c	-0.021004848
4	0xbc046e3d	-0.0080829235
5	0x3d1caec7	0.03825262
6	0x3d1516b1	0.036398593
7	0xbd1166f7	-0.035498586
8	0xbc2d72a4	-0.0105864145
9	0x3c701f65	0.014655923
10	0xbc6891b3	-0.014194894
11	0x3c4b2eb1	0.012401269
12	0xbca278e8	-0.019833043
13	0xbd269542	-0.040669687
14	0xbd09a2da	-0.033602573
15	0xbd2d0086	-0.042236827
16	0xbb530d67	-0.0032204033
17	0x3c72794c	0.014799427
18	0x3d19428c	0.03741698
19	0xbd0333fc	-0.032031998
20	0xbb330b7d	-0.002732008
21	0x3bed2347	0.0072368714
22	0x3c930571	0.01794693
23	0x3ccf909a	0.025337506
24	0xbbc87a0e	-0.0061180657
25	0x3ac987b5	0.0015375527
26	0x3ccf4c80	0.025305033
27	0xbd192c60	-0.037395835
28	0x3d306cb4	0.043072417
29	0x3d01cfb2	0.031692214
30	0x3c6a929a	0.014317179
31	0xbc04ee60	-0.008113474
32	0xbce27564	-0.027643867
33	0x3d0820ef	0.033234533
34	0xbbe1044b	-0.006866967
35	0xbbf145b6	-0.0073630465
36	0xbd09e257	-0.03366312
37	0xbcab48d5	-0.020908752
38	0xbd28c922	-0.04120744
39	0x3c1fa520	0.009743959
40	0xbcd546e0	-0.026034772
41	0x3d081658	0.033224434
42	0xbd202790	-0.03910023
43	0xbc5af698	-0.013364457
44	0x3ccc8bac	0.024968944
45	0x3bd40e1e	0.0064714095
46	0xbd1e9c29	-0.038723145
47	0xbac70f2d	-0.0015187018
48	0xbb8e9fcb	-0.004352545
49	0x3c4b1004	0.012393955
50	0xbb409653	-0.0029386475
51	0x3cf47a95	0.029843608
52	0xbc8268a4	-0.015919037
53	0xbcd1656f	-0.025561063
54	0xbced0f3d	-0.02893793
55	0x3a491664	0.0007670878
56	0xbc501ac8	-0.012701698
57	0x3b0ff4c0	0.002196595
58	0x3c24050b	0.010010968
59	0x3d2dc7e8	0.042426974
60	0x3bfbddc0	0.007686347
61	0x3d1c48f8	0.038155526
62	0x3bb2d076	0.0054569794
63	0x3ce1e5d9	0.02757542
64	0x3cf799c2	0.030224685
65	0xbd03b67d	-0.032156456
66	0xbb6d6f30	-0.0036229603
67	0x3d2d5c58	0.042324394
68	0x3ce02a14	0.027363814
69	0xbd1f6af2	-0.03892035
70	0x3cff8958	0.03119342
71	0x3d0dd2f3	0.034625005
72	0xbd1afe21	-0.037840012
73	0xbd1d531a	-0.03840933
74	0x3d1d68e7	0.03843012
75	0xbc93bf31	-0.018035503
76	0xbc72b97f	-0.0148147335
77	0x3d141ba1	0.03615916
78	0xbca6848f	-0.02032688
79	0x3d038aa0	0.032114625
80	0xbc97ba8d	-0.018521572
81	0xbcbba878	-0.02290748
82	0xbc46ea6d	-0.012140852
83	0xbbd14d45	-0.006387385
84	0x3a8e1cb7	0.0010842298
85	0xbcb915aa	-0.022593338
86	0x3ca742a4	0.020417519
87	0xbd30af50	-0.04313594
88	0x3c5d3d5b	0.013503398
89	0xbca92aa2	-0.020650212
90	0xbc4cdf85	-0.012504463
91	0xbd242467	-0.04007378
92	0xbcb00641	-0.021487357
93	0x3cb2ec55	0.021841208
94	0x3cc3ad5d	0.023886377
95	0xbd287bfe	-0.041133873
96	0xbb422cc1	-0.0029628726
97	0xbd02a15b	-0.03189216
98	0xbd338b30	-0.04383391
99	0x3c40e97e	0.011774419
100	0x3d0da47b	0.03458069
101	0x3cc2dc9d	0.023786837
102	0x3ca5816f	0.02020332
103	0x3c07e3de	0.008294074
104	0xbcf5e7b1	-0.030017706
105	0x3d03fbc7	0.032222535
106	0x3b7480a5	0.0037308123
107	0xbd15a7ef	-0.036537107
108	0x3d07263e	0.032995455
109	0xbc38ddeb	-0.011283378
110	0x3c0b5754	0.008504707
111	0x3d2227e5	0.039588828
112	0x3c348478	0.011017911
113	0x3c685f12	0.014182823
114	0xbc0c3480	-0.008557439
115	0x3b9284a8	0.0044713803
116	0xbd0d1c13	-0.0344506
117	0xbc196403	-0.009362224
118	0x3d0cc551	0.034367863
119	0x3d04ead6	0.03245052
120	0xbc89e9a1	-0.016835036
121	0x3d17760e	0.03697782
122	0xbaa695e4	-0.0012709466
123	0x3c449236	0.01199775
124	0x3c4ba518	0.012429498
125	0xbd0bac94	-0.03410013
126	0xbcc2d38c	-0.023782514
127	0x3d3347f2	0.043769784
